<?xml version="1.0" ?>
<net name="PVANet + R-FCN" version="10">
	<layers>
		<layer id="0" name="data" type="Parameter" version="opset1">
			<data element_type="f32" shape="1,3,544,992"/>
			<output>
				<port id="0" precision="FP32">
					<dim>1</dim>
					<dim>3</dim>
					<dim>544</dim>
					<dim>992</dim>
				</port>
			</output>
		</layer>
		<layer id="1" name="data_add_/copy_const544_const" type="Const" version="opset1">
			<data element_type="f32" offset="0" shape="1,3,1,1" size="12"/>
			<output>
				<port id="1" precision="FP32">
					<dim>1</dim>
					<dim>3</dim>
					<dim>1</dim>
					<dim>1</dim>
				</port>
			</output>
		</layer>
		<layer id="2" name="Add_" type="Add" version="opset1">
			<input>
				<port id="0">
					<dim>1</dim>
					<dim>3</dim>
					<dim>544</dim>
					<dim>992</dim>
				</port>
				<port id="1">
					<dim>1</dim>
					<dim>3</dim>
					<dim>1</dim>
					<dim>1</dim>
				</port>
			</input>
			<output>
				<port id="2" precision="FP32">
					<dim>1</dim>
					<dim>3</dim>
					<dim>544</dim>
					<dim>992</dim>
				</port>
			</output>
		</layer>
		<layer id="3" name="28432847_const" type="Const" version="opset1">
			<data element_type="f32" offset="12" shape="" size="4"/>
			<output>
				<port id="1" precision="FP32"/>
			</output>
		</layer>
		<layer id="4" name="28442848_const" type="Const" version="opset1">
			<data element_type="f32" offset="16" shape="" size="4"/>
			<output>
				<port id="1" precision="FP32"/>
			</output>
		</layer>
		<layer id="5" name="28452849_const" type="Const" version="opset1">
			<data element_type="f32" offset="12" shape="" size="4"/>
			<output>
				<port id="1" precision="FP32"/>
			</output>
		</layer>
		<layer id="6" name="28462850_const" type="Const" version="opset1">
			<data element_type="f32" offset="16" shape="" size="4"/>
			<output>
				<port id="1" precision="FP32"/>
			</output>
		</layer>
		<layer id="7" name="conv1_1/conv/WithoutBiases/fq_input_0" type="FakeQuantize" version="opset1">
			<data levels="256"/>
			<input>
				<port id="0">
					<dim>1</dim>
					<dim>3</dim>
					<dim>544</dim>
					<dim>992</dim>
				</port>
				<port id="1"/>
				<port id="2"/>
				<port id="3"/>
				<port id="4"/>
			</input>
			<output>
				<port id="5" precision="FP32">
					<dim>1</dim>
					<dim>3</dim>
					<dim>544</dim>
					<dim>992</dim>
				</port>
			</output>
		</layer>
		<layer id="8" name="310/Output_0/Data__const546_const" type="Const" version="opset1">
			<data element_type="f32" offset="20" shape="16,3,7,7" size="9408"/>
			<output>
				<port id="1" precision="FP32">
					<dim>16</dim>
					<dim>3</dim>
					<dim>7</dim>
					<dim>7</dim>
				</port>
			</output>
		</layer>
		<layer id="9" name="28532857_const" type="Const" version="opset1">
			<data element_type="f32" offset="9428" shape="16,1,1,1" size="64"/>
			<output>
				<port id="1" precision="FP32">
					<dim>16</dim>
					<dim>1</dim>
					<dim>1</dim>
					<dim>1</dim>
				</port>
			</output>
		</layer>
		<layer id="10" name="28542858_const" type="Const" version="opset1">
			<data element_type="f32" offset="9492" shape="16,1,1,1" size="64"/>
			<output>
				<port id="1" precision="FP32">
					<dim>16</dim>
					<dim>1</dim>
					<dim>1</dim>
					<dim>1</dim>
				</port>
			</output>
		</layer>
		<layer id="11" name="28552859_const" type="Const" version="opset1">
			<data element_type="f32" offset="9556" shape="16,1,1,1" size="64"/>
			<output>
				<port id="1" precision="FP32">
					<dim>16</dim>
					<dim>1</dim>
					<dim>1</dim>
					<dim>1</dim>
				</port>
			</output>
		</layer>
		<layer id="12" name="28562860_const" type="Const" version="opset1">
			<data element_type="f32" offset="9620" shape="16,1,1,1" size="64"/>
			<output>
				<port id="1" precision="FP32">
					<dim>16</dim>
					<dim>1</dim>
					<dim>1</dim>
					<dim>1</dim>
				</port>
			</output>
		</layer>
		<layer id="13" name="conv1_1/conv/WithoutBiases/fq_weights_1" type="FakeQuantize" version="opset1">
			<data levels="255"/>
			<input>
				<port id="0">
					<dim>16</dim>
					<dim>3</dim>
					<dim>7</dim>
					<dim>7</dim>
				</port>
				<port id="1">
					<dim>16</dim>
					<dim>1</dim>
					<dim>1</dim>
					<dim>1</dim>
				</port>
				<port id="2">
					<dim>16</dim>
					<dim>1</dim>
					<dim>1</dim>
					<dim>1</dim>
				</port>
				<port id="3">
					<dim>16</dim>
					<dim>1</dim>
					<dim>1</dim>
					<dim>1</dim>
				</port>
				<port id="4">
					<dim>16</dim>
					<dim>1</dim>
					<dim>1</dim>
					<dim>1</dim>
				</port>
			</input>
			<output>
				<port id="5" precision="FP32">
					<dim>16</dim>
					<dim>3</dim>
					<dim>7</dim>
					<dim>7</dim>
				</port>
			</output>
		</layer>
		<layer id="14" name="conv1_1/conv/WithoutBiases" type="Convolution" version="opset1">
			<data dilations="1,1" output_padding="0,0" pads_begin="3,3" pads_end="3,3" strides="2,2"/>
			<input>
				<port id="0">
					<dim>1</dim>
					<dim>3</dim>
					<dim>544</dim>
					<dim>992</dim>
				</port>
				<port id="1">
					<dim>16</dim>
					<dim>3</dim>
					<dim>7</dim>
					<dim>7</dim>
				</port>
			</input>
			<output>
				<port id="2" precision="FP32">
					<dim>1</dim>
					<dim>16</dim>
					<dim>272</dim>
					<dim>496</dim>
				</port>
			</output>
		</layer>
		<layer id="15" name="conv1_1/conv/Dims4149/copy_const548_const" type="Const" version="opset1">
			<data element_type="f32" offset="9684" shape="1,16,1,1" size="64"/>
			<output>
				<port id="1" precision="FP32">
					<dim>1</dim>
					<dim>16</dim>
					<dim>1</dim>
					<dim>1</dim>
				</port>
			</output>
		</layer>
		<layer id="16" name="conv1_1/conv" type="Add" version="opset1">
			<input>
				<port id="0">
					<dim>1</dim>
					<dim>16</dim>
					<dim>272</dim>
					<dim>496</dim>
				</port>
				<port id="1">
					<dim>1</dim>
					<dim>16</dim>
					<dim>1</dim>
					<dim>1</dim>
				</port>
			</input>
			<output>
				<port id="2" precision="FP32">
					<dim>1</dim>
					<dim>16</dim>
					<dim>272</dim>
					<dim>496</dim>
				</port>
			</output>
		</layer>
		<layer id="17" name="48624866_const" type="Const" version="opset1">
			<data element_type="f32" offset="9748" shape="" size="4"/>
			<output>
				<port id="1" precision="FP32"/>
			</output>
		</layer>
		<layer id="18" name="48634867_const" type="Const" version="opset1">
			<data element_type="f32" offset="9752" shape="" size="4"/>
			<output>
				<port id="1" precision="FP32"/>
			</output>
		</layer>
		<layer id="19" name="48644868_const" type="Const" version="opset1">
			<data element_type="f32" offset="9748" shape="" size="4"/>
			<output>
				<port id="1" precision="FP32"/>
			</output>
		</layer>
		<layer id="20" name="48654869_const" type="Const" version="opset1">
			<data element_type="f32" offset="9752" shape="" size="4"/>
			<output>
				<port id="1" precision="FP32"/>
			</output>
		</layer>
		<layer id="21" name="conv1_1/concat/fq_input_0" type="FakeQuantize" version="opset1">
			<data levels="256"/>
			<input>
				<port id="0">
					<dim>1</dim>
					<dim>16</dim>
					<dim>272</dim>
					<dim>496</dim>
				</port>
				<port id="1"/>
				<port id="2"/>
				<port id="3"/>
				<port id="4"/>
			</input>
			<output>
				<port id="5" precision="FP32">
					<dim>1</dim>
					<dim>16</dim>
					<dim>272</dim>
					<dim>496</dim>
				</port>
			</output>
		</layer>
		<layer id="22" name="conv1_1/neg/mul_/Negate" type="Negative" version="opset1">
			<input>
				<port id="0">
					<dim>1</dim>
					<dim>16</dim>
					<dim>272</dim>
					<dim>496</dim>
				</port>
			</input>
			<output>
				<port id="1" precision="FP32">
					<dim>1</dim>
					<dim>16</dim>
					<dim>272</dim>
					<dim>496</dim>
				</port>
			</output>
		</layer>
		<layer id="23" name="48724876_const" type="Const" version="opset1">
			<data element_type="f32" offset="9748" shape="" size="4"/>
			<output>
				<port id="1" precision="FP32"/>
			</output>
		</layer>
		<layer id="24" name="48734877_const" type="Const" version="opset1">
			<data element_type="f32" offset="9752" shape="" size="4"/>
			<output>
				<port id="1" precision="FP32"/>
			</output>
		</layer>
		<layer id="25" name="48744878_const" type="Const" version="opset1">
			<data element_type="f32" offset="9748" shape="" size="4"/>
			<output>
				<port id="1" precision="FP32"/>
			</output>
		</layer>
		<layer id="26" name="48754879_const" type="Const" version="opset1">
			<data element_type="f32" offset="9752" shape="" size="4"/>
			<output>
				<port id="1" precision="FP32"/>
			</output>
		</layer>
		<layer id="27" name="conv1_1/concat/fq_input_1" type="FakeQuantize" version="opset1">
			<data levels="256"/>
			<input>
				<port id="0">
					<dim>1</dim>
					<dim>16</dim>
					<dim>272</dim>
					<dim>496</dim>
				</port>
				<port id="1"/>
				<port id="2"/>
				<port id="3"/>
				<port id="4"/>
			</input>
			<output>
				<port id="5" precision="FP32">
					<dim>1</dim>
					<dim>16</dim>
					<dim>272</dim>
					<dim>496</dim>
				</port>
			</output>
		</layer>
		<layer id="28" name="conv1_1/concat" type="Concat" version="opset1">
			<data axis="1"/>
			<input>
				<port id="0">
					<dim>1</dim>
					<dim>16</dim>
					<dim>272</dim>
					<dim>496</dim>
				</port>
				<port id="1">
					<dim>1</dim>
					<dim>16</dim>
					<dim>272</dim>
					<dim>496</dim>
				</port>
			</input>
			<output>
				<port id="2" precision="FP32">
					<dim>1</dim>
					<dim>32</dim>
					<dim>272</dim>
					<dim>496</dim>
				</port>
			</output>
		</layer>
		<layer id="29" name="417/Output_0/Data_/copy_const552_const" type="Const" version="opset1">
			<data element_type="f32" offset="9756" shape="1,32,1,1" size="128"/>
			<output>
				<port id="1" precision="FP32">
					<dim>1</dim>
					<dim>32</dim>
					<dim>1</dim>
					<dim>1</dim>
				</port>
			</output>
		</layer>
		<layer id="30" name="conv1_1/scale/Mul_" type="Multiply" version="opset1">
			<input>
				<port id="0">
					<dim>1</dim>
					<dim>32</dim>
					<dim>272</dim>
					<dim>496</dim>
				</port>
				<port id="1">
					<dim>1</dim>
					<dim>32</dim>
					<dim>1</dim>
					<dim>1</dim>
				</port>
			</input>
			<output>
				<port id="2" precision="FP32">
					<dim>1</dim>
					<dim>32</dim>
					<dim>272</dim>
					<dim>496</dim>
				</port>
			</output>
		</layer>
		<layer id="31" name="418/Output_0/Data_/copy_const554_const" type="Const" version="opset1">
			<data element_type="f32" offset="9884" shape="1,32,1,1" size="128"/>
			<output>
				<port id="1" precision="FP32">
					<dim>1</dim>
					<dim>32</dim>
					<dim>1</dim>
					<dim>1</dim>
				</port>
			</output>
		</layer>
		<layer id="32" name="conv1_1/scale/Add_" type="Add" version="opset1">
			<input>
				<port id="0">
					<dim>1</dim>
					<dim>32</dim>
					<dim>272</dim>
					<dim>496</dim>
				</port>
				<port id="1">
					<dim>1</dim>
					<dim>32</dim>
					<dim>1</dim>
					<dim>1</dim>
				</port>
			</input>
			<output>
				<port id="2" precision="FP32">
					<dim>1</dim>
					<dim>32</dim>
					<dim>272</dim>
					<dim>496</dim>
				</port>
			</output>
		</layer>
		<layer id="33" name="conv1_1/relu" type="ReLU" version="opset1">
			<input>
				<port id="0">
					<dim>1</dim>
					<dim>32</dim>
					<dim>272</dim>
					<dim>496</dim>
				</port>
			</input>
			<output>
				<port id="1" precision="FP32">
					<dim>1</dim>
					<dim>32</dim>
					<dim>272</dim>
					<dim>496</dim>
				</port>
			</output>
		</layer>
		<layer id="34" name="48824886_const" type="Const" version="opset1">
			<data element_type="f32" offset="10012" shape="" size="4"/>
			<output>
				<port id="1" precision="FP32"/>
			</output>
		</layer>
		<layer id="35" name="48834887_const" type="Const" version="opset1">
			<data element_type="f32" offset="10016" shape="" size="4"/>
			<output>
				<port id="1" precision="FP32"/>
			</output>
		</layer>
		<layer id="36" name="48844888_const" type="Const" version="opset1">
			<data element_type="f32" offset="10012" shape="" size="4"/>
			<output>
				<port id="1" precision="FP32"/>
			</output>
		</layer>
		<layer id="37" name="48854889_const" type="Const" version="opset1">
			<data element_type="f32" offset="10016" shape="" size="4"/>
			<output>
				<port id="1" precision="FP32"/>
			</output>
		</layer>
		<layer id="38" name="pool1/fq_input_0" type="FakeQuantize" version="opset1">
			<data levels="256"/>
			<input>
				<port id="0">
					<dim>1</dim>
					<dim>32</dim>
					<dim>272</dim>
					<dim>496</dim>
				</port>
				<port id="1"/>
				<port id="2"/>
				<port id="3"/>
				<port id="4"/>
			</input>
			<output>
				<port id="5" precision="FP32">
					<dim>1</dim>
					<dim>32</dim>
					<dim>272</dim>
					<dim>496</dim>
				</port>
			</output>
		</layer>
		<layer id="39" name="pool1" type="MaxPool" version="opset1">
			<data kernel="3,3" pads_begin="0,0" pads_end="0,0" rounding_type="ceil" strides="2,2"/>
			<input>
				<port id="0">
					<dim>1</dim>
					<dim>32</dim>
					<dim>272</dim>
					<dim>496</dim>
				</port>
			</input>
			<output>
				<port id="1" precision="FP32">
					<dim>1</dim>
					<dim>32</dim>
					<dim>136</dim>
					<dim>248</dim>
				</port>
			</output>
		</layer>
		<layer id="40" name="330/Output_0/Data__const558_const" type="Const" version="opset1">
			<data element_type="f32" offset="10020" shape="24,32,1,1" size="3072"/>
			<output>
				<port id="1" precision="FP32">
					<dim>24</dim>
					<dim>32</dim>
					<dim>1</dim>
					<dim>1</dim>
				</port>
			</output>
		</layer>
		<layer id="41" name="33333337_const" type="Const" version="opset1">
			<data element_type="f32" offset="13092" shape="24,1,1,1" size="96"/>
			<output>
				<port id="1" precision="FP32">
					<dim>24</dim>
					<dim>1</dim>
					<dim>1</dim>
					<dim>1</dim>
				</port>
			</output>
		</layer>
		<layer id="42" name="33343338_const" type="Const" version="opset1">
			<data element_type="f32" offset="13188" shape="24,1,1,1" size="96"/>
			<output>
				<port id="1" precision="FP32">
					<dim>24</dim>
					<dim>1</dim>
					<dim>1</dim>
					<dim>1</dim>
				</port>
			</output>
		</layer>
		<layer id="43" name="33353339_const" type="Const" version="opset1">
			<data element_type="f32" offset="13092" shape="24,1,1,1" size="96"/>
			<output>
				<port id="1" precision="FP32">
					<dim>24</dim>
					<dim>1</dim>
					<dim>1</dim>
					<dim>1</dim>
				</port>
			</output>
		</layer>
		<layer id="44" name="33363340_const" type="Const" version="opset1">
			<data element_type="f32" offset="13188" shape="24,1,1,1" size="96"/>
			<output>
				<port id="1" precision="FP32">
					<dim>24</dim>
					<dim>1</dim>
					<dim>1</dim>
					<dim>1</dim>
				</port>
			</output>
		</layer>
		<layer id="45" name="conv2_1/1/conv/WithoutBiases/fq_weights_1" type="FakeQuantize" version="opset1">
			<data levels="255"/>
			<input>
				<port id="0">
					<dim>24</dim>
					<dim>32</dim>
					<dim>1</dim>
					<dim>1</dim>
				</port>
				<port id="1">
					<dim>24</dim>
					<dim>1</dim>
					<dim>1</dim>
					<dim>1</dim>
				</port>
				<port id="2">
					<dim>24</dim>
					<dim>1</dim>
					<dim>1</dim>
					<dim>1</dim>
				</port>
				<port id="3">
					<dim>24</dim>
					<dim>1</dim>
					<dim>1</dim>
					<dim>1</dim>
				</port>
				<port id="4">
					<dim>24</dim>
					<dim>1</dim>
					<dim>1</dim>
					<dim>1</dim>
				</port>
			</input>
			<output>
				<port id="5" precision="FP32">
					<dim>24</dim>
					<dim>32</dim>
					<dim>1</dim>
					<dim>1</dim>
				</port>
			</output>
		</layer>
		<layer id="46" name="conv2_1/1/conv/WithoutBiases" type="Convolution" version="opset1">
			<data dilations="1,1" output_padding="0,0" pads_begin="0,0" pads_end="0,0" strides="1,1"/>
			<input>
				<port id="0">
					<dim>1</dim>
					<dim>32</dim>
					<dim>136</dim>
					<dim>248</dim>
				</port>
				<port id="1">
					<dim>24</dim>
					<dim>32</dim>
					<dim>1</dim>
					<dim>1</dim>
				</port>
			</input>
			<output>
				<port id="2" precision="FP32">
					<dim>1</dim>
					<dim>24</dim>
					<dim>136</dim>
					<dim>248</dim>
				</port>
			</output>
		</layer>
		<layer id="47" name="conv2_1/1/conv/Dims4167/copy_const560_const" type="Const" version="opset1">
			<data element_type="f32" offset="13284" shape="1,24,1,1" size="96"/>
			<output>
				<port id="1" precision="FP32">
					<dim>1</dim>
					<dim>24</dim>
					<dim>1</dim>
					<dim>1</dim>
				</port>
			</output>
		</layer>
		<layer id="48" name="conv2_1/1/conv" type="Add" version="opset1">
			<input>
				<port id="0">
					<dim>1</dim>
					<dim>24</dim>
					<dim>136</dim>
					<dim>248</dim>
				</port>
				<port id="1">
					<dim>1</dim>
					<dim>24</dim>
					<dim>1</dim>
					<dim>1</dim>
				</port>
			</input>
			<output>
				<port id="2" precision="FP32">
					<dim>1</dim>
					<dim>24</dim>
					<dim>136</dim>
					<dim>248</dim>
				</port>
			</output>
		</layer>
		<layer id="49" name="conv2_1/1/relu" type="ReLU" version="opset1">
			<input>
				<port id="0">
					<dim>1</dim>
					<dim>24</dim>
					<dim>136</dim>
					<dim>248</dim>
				</port>
			</input>
			<output>
				<port id="1" precision="FP32">
					<dim>1</dim>
					<dim>24</dim>
					<dim>136</dim>
					<dim>248</dim>
				</port>
			</output>
		</layer>
		<layer id="50" name="35433547_const" type="Const" version="opset1">
			<data element_type="f32" offset="10012" shape="" size="4"/>
			<output>
				<port id="1" precision="FP32"/>
			</output>
		</layer>
		<layer id="51" name="35443548_const" type="Const" version="opset1">
			<data element_type="f32" offset="13380" shape="" size="4"/>
			<output>
				<port id="1" precision="FP32"/>
			</output>
		</layer>
		<layer id="52" name="35453549_const" type="Const" version="opset1">
			<data element_type="f32" offset="10012" shape="" size="4"/>
			<output>
				<port id="1" precision="FP32"/>
			</output>
		</layer>
		<layer id="53" name="35463550_const" type="Const" version="opset1">
			<data element_type="f32" offset="13380" shape="" size="4"/>
			<output>
				<port id="1" precision="FP32"/>
			</output>
		</layer>
		<layer id="54" name="conv2_1/2/conv/WithoutBiases/fq_input_0" type="FakeQuantize" version="opset1">
			<data levels="256"/>
			<input>
				<port id="0">
					<dim>1</dim>
					<dim>24</dim>
					<dim>136</dim>
					<dim>248</dim>
				</port>
				<port id="1"/>
				<port id="2"/>
				<port id="3"/>
				<port id="4"/>
			</input>
			<output>
				<port id="5" precision="FP32">
					<dim>1</dim>
					<dim>24</dim>
					<dim>136</dim>
					<dim>248</dim>
				</port>
			</output>
		</layer>
		<layer id="55" name="346/Output_0/Data__const563_const" type="Const" version="opset1">
			<data element_type="f32" offset="13384" shape="24,24,3,3" size="20736"/>
			<output>
				<port id="1" precision="FP32">
					<dim>24</dim>
					<dim>24</dim>
					<dim>3</dim>
					<dim>3</dim>
				</port>
			</output>
		</layer>
		<layer id="56" name="35533557_const" type="Const" version="opset1">
			<data element_type="f32" offset="34120" shape="24,1,1,1" size="96"/>
			<output>
				<port id="1" precision="FP32">
					<dim>24</dim>
					<dim>1</dim>
					<dim>1</dim>
					<dim>1</dim>
				</port>
			</output>
		</layer>
		<layer id="57" name="35543558_const" type="Const" version="opset1">
			<data element_type="f32" offset="34216" shape="24,1,1,1" size="96"/>
			<output>
				<port id="1" precision="FP32">
					<dim>24</dim>
					<dim>1</dim>
					<dim>1</dim>
					<dim>1</dim>
				</port>
			</output>
		</layer>
		<layer id="58" name="35553559_const" type="Const" version="opset1">
			<data element_type="f32" offset="34120" shape="24,1,1,1" size="96"/>
			<output>
				<port id="1" precision="FP32">
					<dim>24</dim>
					<dim>1</dim>
					<dim>1</dim>
					<dim>1</dim>
				</port>
			</output>
		</layer>
		<layer id="59" name="35563560_const" type="Const" version="opset1">
			<data element_type="f32" offset="34216" shape="24,1,1,1" size="96"/>
			<output>
				<port id="1" precision="FP32">
					<dim>24</dim>
					<dim>1</dim>
					<dim>1</dim>
					<dim>1</dim>
				</port>
			</output>
		</layer>
		<layer id="60" name="conv2_1/2/conv/WithoutBiases/fq_weights_1" type="FakeQuantize" version="opset1">
			<data levels="255"/>
			<input>
				<port id="0">
					<dim>24</dim>
					<dim>24</dim>
					<dim>3</dim>
					<dim>3</dim>
				</port>
				<port id="1">
					<dim>24</dim>
					<dim>1</dim>
					<dim>1</dim>
					<dim>1</dim>
				</port>
				<port id="2">
					<dim>24</dim>
					<dim>1</dim>
					<dim>1</dim>
					<dim>1</dim>
				</port>
				<port id="3">
					<dim>24</dim>
					<dim>1</dim>
					<dim>1</dim>
					<dim>1</dim>
				</port>
				<port id="4">
					<dim>24</dim>
					<dim>1</dim>
					<dim>1</dim>
					<dim>1</dim>
				</port>
			</input>
			<output>
				<port id="5" precision="FP32">
					<dim>24</dim>
					<dim>24</dim>
					<dim>3</dim>
					<dim>3</dim>
				</port>
			</output>
		</layer>
		<layer id="61" name="conv2_1/2/conv/WithoutBiases" type="Convolution" version="opset1">
			<data dilations="1,1" output_padding="0,0" pads_begin="1,1" pads_end="1,1" strides="1,1"/>
			<input>
				<port id="0">
					<dim>1</dim>
					<dim>24</dim>
					<dim>136</dim>
					<dim>248</dim>
				</port>
				<port id="1">
					<dim>24</dim>
					<dim>24</dim>
					<dim>3</dim>
					<dim>3</dim>
				</port>
			</input>
			<output>
				<port id="2" precision="FP32">
					<dim>1</dim>
					<dim>24</dim>
					<dim>136</dim>
					<dim>248</dim>
				</port>
			</output>
		</layer>
		<layer id="62" name="conv2_1/2/conv/Dims4317/copy_const565_const" type="Const" version="opset1">
			<data element_type="f32" offset="34312" shape="1,24,1,1" size="96"/>
			<output>
				<port id="1" precision="FP32">
					<dim>1</dim>
					<dim>24</dim>
					<dim>1</dim>
					<dim>1</dim>
				</port>
			</output>
		</layer>
		<layer id="63" name="conv2_1/2/conv" type="Add" version="opset1">
			<input>
				<port id="0">
					<dim>1</dim>
					<dim>24</dim>
					<dim>136</dim>
					<dim>248</dim>
				</port>
				<port id="1">
					<dim>1</dim>
					<dim>24</dim>
					<dim>1</dim>
					<dim>1</dim>
				</port>
			</input>
			<output>
				<port id="2" precision="FP32">
					<dim>1</dim>
					<dim>24</dim>
					<dim>136</dim>
					<dim>248</dim>
				</port>
			</output>
		</layer>
		<layer id="64" name="48924896_const" type="Const" version="opset1">
			<data element_type="f32" offset="34408" shape="" size="4"/>
			<output>
				<port id="1" precision="FP32"/>
			</output>
		</layer>
		<layer id="65" name="48934897_const" type="Const" version="opset1">
			<data element_type="f32" offset="34412" shape="" size="4"/>
			<output>
				<port id="1" precision="FP32"/>
			</output>
		</layer>
		<layer id="66" name="48944898_const" type="Const" version="opset1">
			<data element_type="f32" offset="34408" shape="" size="4"/>
			<output>
				<port id="1" precision="FP32"/>
			</output>
		</layer>
		<layer id="67" name="48954899_const" type="Const" version="opset1">
			<data element_type="f32" offset="34412" shape="" size="4"/>
			<output>
				<port id="1" precision="FP32"/>
			</output>
		</layer>
		<layer id="68" name="conv2_1/2/concat/fq_input_0" type="FakeQuantize" version="opset1">
			<data levels="256"/>
			<input>
				<port id="0">
					<dim>1</dim>
					<dim>24</dim>
					<dim>136</dim>
					<dim>248</dim>
				</port>
				<port id="1"/>
				<port id="2"/>
				<port id="3"/>
				<port id="4"/>
			</input>
			<output>
				<port id="5" precision="FP32">
					<dim>1</dim>
					<dim>24</dim>
					<dim>136</dim>
					<dim>248</dim>
				</port>
			</output>
		</layer>
		<layer id="69" name="conv2_1/2/neg/mul_/Negate" type="Negative" version="opset1">
			<input>
				<port id="0">
					<dim>1</dim>
					<dim>24</dim>
					<dim>136</dim>
					<dim>248</dim>
				</port>
			</input>
			<output>
				<port id="1" precision="FP32">
					<dim>1</dim>
					<dim>24</dim>
					<dim>136</dim>
					<dim>248</dim>
				</port>
			</output>
		</layer>
		<layer id="70" name="49024906_const" type="Const" version="opset1">
			<data element_type="f32" offset="34408" shape="" size="4"/>
			<output>
				<port id="1" precision="FP32"/>
			</output>
		</layer>
		<layer id="71" name="49034907_const" type="Const" version="opset1">
			<data element_type="f32" offset="34412" shape="" size="4"/>
			<output>
				<port id="1" precision="FP32"/>
			</output>
		</layer>
		<layer id="72" name="49044908_const" type="Const" version="opset1">
			<data element_type="f32" offset="34408" shape="" size="4"/>
			<output>
				<port id="1" precision="FP32"/>
			</output>
		</layer>
		<layer id="73" name="49054909_const" type="Const" version="opset1">
			<data element_type="f32" offset="34412" shape="" size="4"/>
			<output>
				<port id="1" precision="FP32"/>
			</output>
		</layer>
		<layer id="74" name="conv2_1/2/concat/fq_input_1" type="FakeQuantize" version="opset1">
			<data levels="256"/>
			<input>
				<port id="0">
					<dim>1</dim>
					<dim>24</dim>
					<dim>136</dim>
					<dim>248</dim>
				</port>
				<port id="1"/>
				<port id="2"/>
				<port id="3"/>
				<port id="4"/>
			</input>
			<output>
				<port id="5" precision="FP32">
					<dim>1</dim>
					<dim>24</dim>
					<dim>136</dim>
					<dim>248</dim>
				</port>
			</output>
		</layer>
		<layer id="75" name="conv2_1/2/concat" type="Concat" version="opset1">
			<data axis="1"/>
			<input>
				<port id="0">
					<dim>1</dim>
					<dim>24</dim>
					<dim>136</dim>
					<dim>248</dim>
				</port>
				<port id="1">
					<dim>1</dim>
					<dim>24</dim>
					<dim>136</dim>
					<dim>248</dim>
				</port>
			</input>
			<output>
				<port id="2" precision="FP32">
					<dim>1</dim>
					<dim>48</dim>
					<dim>136</dim>
					<dim>248</dim>
				</port>
			</output>
		</layer>
		<layer id="76" name="386/Output_0/Data_/copy_const569_const" type="Const" version="opset1">
			<data element_type="f32" offset="34416" shape="1,48,1,1" size="192"/>
			<output>
				<port id="1" precision="FP32">
					<dim>1</dim>
					<dim>48</dim>
					<dim>1</dim>
					<dim>1</dim>
				</port>
			</output>
		</layer>
		<layer id="77" name="conv2_1/2/scale/Mul_" type="Multiply" version="opset1">
			<input>
				<port id="0">
					<dim>1</dim>
					<dim>48</dim>
					<dim>136</dim>
					<dim>248</dim>
				</port>
				<port id="1">
					<dim>1</dim>
					<dim>48</dim>
					<dim>1</dim>
					<dim>1</dim>
				</port>
			</input>
			<output>
				<port id="2" precision="FP32">
					<dim>1</dim>
					<dim>48</dim>
					<dim>136</dim>
					<dim>248</dim>
				</port>
			</output>
		</layer>
		<layer id="78" name="387/Output_0/Data_/copy_const571_const" type="Const" version="opset1">
			<data element_type="f32" offset="34608" shape="1,48,1,1" size="192"/>
			<output>
				<port id="1" precision="FP32">
					<dim>1</dim>
					<dim>48</dim>
					<dim>1</dim>
					<dim>1</dim>
				</port>
			</output>
		</layer>
		<layer id="79" name="conv2_1/2/scale/Add_" type="Add" version="opset1">
			<input>
				<port id="0">
					<dim>1</dim>
					<dim>48</dim>
					<dim>136</dim>
					<dim>248</dim>
				</port>
				<port id="1">
					<dim>1</dim>
					<dim>48</dim>
					<dim>1</dim>
					<dim>1</dim>
				</port>
			</input>
			<output>
				<port id="2" precision="FP32">
					<dim>1</dim>
					<dim>48</dim>
					<dim>136</dim>
					<dim>248</dim>
				</port>
			</output>
		</layer>
		<layer id="80" name="conv2_1/2/relu" type="ReLU" version="opset1">
			<input>
				<port id="0">
					<dim>1</dim>
					<dim>48</dim>
					<dim>136</dim>
					<dim>248</dim>
				</port>
			</input>
			<output>
				<port id="1" precision="FP32">
					<dim>1</dim>
					<dim>48</dim>
					<dim>136</dim>
					<dim>248</dim>
				</port>
			</output>
		</layer>
		<layer id="81" name="36733677_const" type="Const" version="opset1">
			<data element_type="f32" offset="10012" shape="" size="4"/>
			<output>
				<port id="1" precision="FP32"/>
			</output>
		</layer>
		<layer id="82" name="36743678_const" type="Const" version="opset1">
			<data element_type="f32" offset="34800" shape="" size="4"/>
			<output>
				<port id="1" precision="FP32"/>
			</output>
		</layer>
		<layer id="83" name="36753679_const" type="Const" version="opset1">
			<data element_type="f32" offset="10012" shape="" size="4"/>
			<output>
				<port id="1" precision="FP32"/>
			</output>
		</layer>
		<layer id="84" name="36763680_const" type="Const" version="opset1">
			<data element_type="f32" offset="34800" shape="" size="4"/>
			<output>
				<port id="1" precision="FP32"/>
			</output>
		</layer>
		<layer id="85" name="conv2_1/3/conv/WithoutBiases/fq_input_0" type="FakeQuantize" version="opset1">
			<data levels="256"/>
			<input>
				<port id="0">
					<dim>1</dim>
					<dim>48</dim>
					<dim>136</dim>
					<dim>248</dim>
				</port>
				<port id="1"/>
				<port id="2"/>
				<port id="3"/>
				<port id="4"/>
			</input>
			<output>
				<port id="5" precision="FP32">
					<dim>1</dim>
					<dim>48</dim>
					<dim>136</dim>
					<dim>248</dim>
				</port>
			</output>
		</layer>
		<layer id="86" name="384/Output_0/Data__const574_const" type="Const" version="opset1">
			<data element_type="f32" offset="34804" shape="64,48,1,1" size="12288"/>
			<output>
				<port id="1" precision="FP32">
					<dim>64</dim>
					<dim>48</dim>
					<dim>1</dim>
					<dim>1</dim>
				</port>
			</output>
		</layer>
		<layer id="87" name="36833687_const" type="Const" version="opset1">
			<data element_type="f32" offset="47092" shape="64,1,1,1" size="256"/>
			<output>
				<port id="1" precision="FP32">
					<dim>64</dim>
					<dim>1</dim>
					<dim>1</dim>
					<dim>1</dim>
				</port>
			</output>
		</layer>
		<layer id="88" name="36843688_const" type="Const" version="opset1">
			<data element_type="f32" offset="47348" shape="64,1,1,1" size="256"/>
			<output>
				<port id="1" precision="FP32">
					<dim>64</dim>
					<dim>1</dim>
					<dim>1</dim>
					<dim>1</dim>
				</port>
			</output>
		</layer>
		<layer id="89" name="36853689_const" type="Const" version="opset1">
			<data element_type="f32" offset="47092" shape="64,1,1,1" size="256"/>
			<output>
				<port id="1" precision="FP32">
					<dim>64</dim>
					<dim>1</dim>
					<dim>1</dim>
					<dim>1</dim>
				</port>
			</output>
		</layer>
		<layer id="90" name="36863690_const" type="Const" version="opset1">
			<data element_type="f32" offset="47348" shape="64,1,1,1" size="256"/>
			<output>
				<port id="1" precision="FP32">
					<dim>64</dim>
					<dim>1</dim>
					<dim>1</dim>
					<dim>1</dim>
				</port>
			</output>
		</layer>
		<layer id="91" name="conv2_1/3/conv/WithoutBiases/fq_weights_1" type="FakeQuantize" version="opset1">
			<data levels="255"/>
			<input>
				<port id="0">
					<dim>64</dim>
					<dim>48</dim>
					<dim>1</dim>
					<dim>1</dim>
				</port>
				<port id="1">
					<dim>64</dim>
					<dim>1</dim>
					<dim>1</dim>
					<dim>1</dim>
				</port>
				<port id="2">
					<dim>64</dim>
					<dim>1</dim>
					<dim>1</dim>
					<dim>1</dim>
				</port>
				<port id="3">
					<dim>64</dim>
					<dim>1</dim>
					<dim>1</dim>
					<dim>1</dim>
				</port>
				<port id="4">
					<dim>64</dim>
					<dim>1</dim>
					<dim>1</dim>
					<dim>1</dim>
				</port>
			</input>
			<output>
				<port id="5" precision="FP32">
					<dim>64</dim>
					<dim>48</dim>
					<dim>1</dim>
					<dim>1</dim>
				</port>
			</output>
		</layer>
		<layer id="92" name="conv2_1/3/conv/WithoutBiases" type="Convolution" version="opset1">
			<data dilations="1,1" output_padding="0,0" pads_begin="0,0" pads_end="0,0" strides="1,1"/>
			<input>
				<port id="0">
					<dim>1</dim>
					<dim>48</dim>
					<dim>136</dim>
					<dim>248</dim>
				</port>
				<port id="1">
					<dim>64</dim>
					<dim>48</dim>
					<dim>1</dim>
					<dim>1</dim>
				</port>
			</input>
			<output>
				<port id="2" precision="FP32">
					<dim>1</dim>
					<dim>64</dim>
					<dim>136</dim>
					<dim>248</dim>
				</port>
			</output>
		</layer>
		<layer id="93" name="conv2_1/3/conv/Dims4197/copy_const576_const" type="Const" version="opset1">
			<data element_type="f32" offset="47604" shape="1,64,1,1" size="256"/>
			<output>
				<port id="1" precision="FP32">
					<dim>1</dim>
					<dim>64</dim>
					<dim>1</dim>
					<dim>1</dim>
				</port>
			</output>
		</layer>
		<layer id="94" name="conv2_1/3/conv" type="Add" version="opset1">
			<input>
				<port id="0">
					<dim>1</dim>
					<dim>64</dim>
					<dim>136</dim>
					<dim>248</dim>
				</port>
				<port id="1">
					<dim>1</dim>
					<dim>64</dim>
					<dim>1</dim>
					<dim>1</dim>
				</port>
			</input>
			<output>
				<port id="2" precision="FP32">
					<dim>1</dim>
					<dim>64</dim>
					<dim>136</dim>
					<dim>248</dim>
				</port>
			</output>
		</layer>
		<layer id="95" name="32533257_const" type="Const" version="opset1">
			<data element_type="f32" offset="47860" shape="" size="4"/>
			<output>
				<port id="1" precision="FP32"/>
			</output>
		</layer>
		<layer id="96" name="32543258_const" type="Const" version="opset1">
			<data element_type="f32" offset="47864" shape="" size="4"/>
			<output>
				<port id="1" precision="FP32"/>
			</output>
		</layer>
		<layer id="97" name="32553259_const" type="Const" version="opset1">
			<data element_type="f32" offset="47860" shape="" size="4"/>
			<output>
				<port id="1" precision="FP32"/>
			</output>
		</layer>
		<layer id="98" name="32563260_const" type="Const" version="opset1">
			<data element_type="f32" offset="47864" shape="" size="4"/>
			<output>
				<port id="1" precision="FP32"/>
			</output>
		</layer>
		<layer id="99" name="conv2_1/fq_input_0" type="FakeQuantize" version="opset1">
			<data levels="256"/>
			<input>
				<port id="0">
					<dim>1</dim>
					<dim>64</dim>
					<dim>136</dim>
					<dim>248</dim>
				</port>
				<port id="1"/>
				<port id="2"/>
				<port id="3"/>
				<port id="4"/>
			</input>
			<output>
				<port id="5" precision="FP32">
					<dim>1</dim>
					<dim>64</dim>
					<dim>136</dim>
					<dim>248</dim>
				</port>
			</output>
		</layer>
		<layer id="100" name="278/Output_0/Data__const578_const" type="Const" version="opset1">
			<data element_type="f32" offset="47868" shape="64,32,1,1" size="8192"/>
			<output>
				<port id="1" precision="FP32">
					<dim>64</dim>
					<dim>32</dim>
					<dim>1</dim>
					<dim>1</dim>
				</port>
			</output>
		</layer>
		<layer id="101" name="35933597_const" type="Const" version="opset1">
			<data element_type="f32" offset="56060" shape="64,1,1,1" size="256"/>
			<output>
				<port id="1" precision="FP32">
					<dim>64</dim>
					<dim>1</dim>
					<dim>1</dim>
					<dim>1</dim>
				</port>
			</output>
		</layer>
		<layer id="102" name="35943598_const" type="Const" version="opset1">
			<data element_type="f32" offset="56316" shape="64,1,1,1" size="256"/>
			<output>
				<port id="1" precision="FP32">
					<dim>64</dim>
					<dim>1</dim>
					<dim>1</dim>
					<dim>1</dim>
				</port>
			</output>
		</layer>
		<layer id="103" name="35953599_const" type="Const" version="opset1">
			<data element_type="f32" offset="56060" shape="64,1,1,1" size="256"/>
			<output>
				<port id="1" precision="FP32">
					<dim>64</dim>
					<dim>1</dim>
					<dim>1</dim>
					<dim>1</dim>
				</port>
			</output>
		</layer>
		<layer id="104" name="35963600_const" type="Const" version="opset1">
			<data element_type="f32" offset="56316" shape="64,1,1,1" size="256"/>
			<output>
				<port id="1" precision="FP32">
					<dim>64</dim>
					<dim>1</dim>
					<dim>1</dim>
					<dim>1</dim>
				</port>
			</output>
		</layer>
		<layer id="105" name="conv2_1/proj/WithoutBiases/fq_weights_1" type="FakeQuantize" version="opset1">
			<data levels="255"/>
			<input>
				<port id="0">
					<dim>64</dim>
					<dim>32</dim>
					<dim>1</dim>
					<dim>1</dim>
				</port>
				<port id="1">
					<dim>64</dim>
					<dim>1</dim>
					<dim>1</dim>
					<dim>1</dim>
				</port>
				<port id="2">
					<dim>64</dim>
					<dim>1</dim>
					<dim>1</dim>
					<dim>1</dim>
				</port>
				<port id="3">
					<dim>64</dim>
					<dim>1</dim>
					<dim>1</dim>
					<dim>1</dim>
				</port>
				<port id="4">
					<dim>64</dim>
					<dim>1</dim>
					<dim>1</dim>
					<dim>1</dim>
				</port>
			</input>
			<output>
				<port id="5" precision="FP32">
					<dim>64</dim>
					<dim>32</dim>
					<dim>1</dim>
					<dim>1</dim>
				</port>
			</output>
		</layer>
		<layer id="106" name="conv2_1/proj/WithoutBiases" type="Convolution" version="opset1">
			<data dilations="1,1" output_padding="0,0" pads_begin="0,0" pads_end="0,0" strides="1,1"/>
			<input>
				<port id="0">
					<dim>1</dim>
					<dim>32</dim>
					<dim>136</dim>
					<dim>248</dim>
				</port>
				<port id="1">
					<dim>64</dim>
					<dim>32</dim>
					<dim>1</dim>
					<dim>1</dim>
				</port>
			</input>
			<output>
				<port id="2" precision="FP32">
					<dim>1</dim>
					<dim>64</dim>
					<dim>136</dim>
					<dim>248</dim>
				</port>
			</output>
		</layer>
		<layer id="107" name="conv2_1/proj/Dims4551/copy_const580_const" type="Const" version="opset1">
			<data element_type="f32" offset="56572" shape="1,64,1,1" size="256"/>
			<output>
				<port id="1" precision="FP32">
					<dim>1</dim>
					<dim>64</dim>
					<dim>1</dim>
					<dim>1</dim>
				</port>
			</output>
		</layer>
		<layer id="108" name="conv2_1/proj" type="Add" version="opset1">
			<input>
				<port id="0">
					<dim>1</dim>
					<dim>64</dim>
					<dim>136</dim>
					<dim>248</dim>
				</port>
				<port id="1">
					<dim>1</dim>
					<dim>64</dim>
					<dim>1</dim>
					<dim>1</dim>
				</port>
			</input>
			<output>
				<port id="2" precision="FP32">
					<dim>1</dim>
					<dim>64</dim>
					<dim>136</dim>
					<dim>248</dim>
				</port>
			</output>
		</layer>
		<layer id="109" name="32633267_const" type="Const" version="opset1">
			<data element_type="f32" offset="56828" shape="" size="4"/>
			<output>
				<port id="1" precision="FP32"/>
			</output>
		</layer>
		<layer id="110" name="32643268_const" type="Const" version="opset1">
			<data element_type="f32" offset="56832" shape="" size="4"/>
			<output>
				<port id="1" precision="FP32"/>
			</output>
		</layer>
		<layer id="111" name="32653269_const" type="Const" version="opset1">
			<data element_type="f32" offset="56828" shape="" size="4"/>
			<output>
				<port id="1" precision="FP32"/>
			</output>
		</layer>
		<layer id="112" name="32663270_const" type="Const" version="opset1">
			<data element_type="f32" offset="56832" shape="" size="4"/>
			<output>
				<port id="1" precision="FP32"/>
			</output>
		</layer>
		<layer id="113" name="conv2_1/fq_input_1" type="FakeQuantize" version="opset1">
			<data levels="256"/>
			<input>
				<port id="0">
					<dim>1</dim>
					<dim>64</dim>
					<dim>136</dim>
					<dim>248</dim>
				</port>
				<port id="1"/>
				<port id="2"/>
				<port id="3"/>
				<port id="4"/>
			</input>
			<output>
				<port id="5" precision="FP32">
					<dim>1</dim>
					<dim>64</dim>
					<dim>136</dim>
					<dim>248</dim>
				</port>
			</output>
		</layer>
		<layer id="114" name="conv2_1" type="Add" version="opset1">
			<input>
				<port id="0">
					<dim>1</dim>
					<dim>64</dim>
					<dim>136</dim>
					<dim>248</dim>
				</port>
				<port id="1">
					<dim>1</dim>
					<dim>64</dim>
					<dim>136</dim>
					<dim>248</dim>
				</port>
			</input>
			<output>
				<port id="2" precision="FP32">
					<dim>1</dim>
					<dim>64</dim>
					<dim>136</dim>
					<dim>248</dim>
				</port>
			</output>
		</layer>
		<layer id="115" name="34033407_const" type="Const" version="opset1">
			<data element_type="f32" offset="56836" shape="" size="4"/>
			<output>
				<port id="1" precision="FP32"/>
			</output>
		</layer>
		<layer id="116" name="34043408_const" type="Const" version="opset1">
			<data element_type="f32" offset="56840" shape="" size="4"/>
			<output>
				<port id="1" precision="FP32"/>
			</output>
		</layer>
		<layer id="117" name="34053409_const" type="Const" version="opset1">
			<data element_type="f32" offset="56836" shape="" size="4"/>
			<output>
				<port id="1" precision="FP32"/>
			</output>
		</layer>
		<layer id="118" name="34063410_const" type="Const" version="opset1">
			<data element_type="f32" offset="56840" shape="" size="4"/>
			<output>
				<port id="1" precision="FP32"/>
			</output>
		</layer>
		<layer id="119" name="conv2_2/1/conv/WithoutBiases/fq_input_0" type="FakeQuantize" version="opset1">
			<data levels="256"/>
			<input>
				<port id="0">
					<dim>1</dim>
					<dim>64</dim>
					<dim>136</dim>
					<dim>248</dim>
				</port>
				<port id="1"/>
				<port id="2"/>
				<port id="3"/>
				<port id="4"/>
			</input>
			<output>
				<port id="5" precision="FP32">
					<dim>1</dim>
					<dim>64</dim>
					<dim>136</dim>
					<dim>248</dim>
				</port>
			</output>
		</layer>
		<layer id="120" name="298/Output_0/Data__const583_const" type="Const" version="opset1">
			<data element_type="f32" offset="56844" shape="24,64,1,1" size="6144"/>
			<output>
				<port id="1" precision="FP32">
					<dim>24</dim>
					<dim>64</dim>
					<dim>1</dim>
					<dim>1</dim>
				</port>
			</output>
		</layer>
		<layer id="121" name="34133417_const" type="Const" version="opset1">
			<data element_type="f32" offset="62988" shape="24,1,1,1" size="96"/>
			<output>
				<port id="1" precision="FP32">
					<dim>24</dim>
					<dim>1</dim>
					<dim>1</dim>
					<dim>1</dim>
				</port>
			</output>
		</layer>
		<layer id="122" name="34143418_const" type="Const" version="opset1">
			<data element_type="f32" offset="63084" shape="24,1,1,1" size="96"/>
			<output>
				<port id="1" precision="FP32">
					<dim>24</dim>
					<dim>1</dim>
					<dim>1</dim>
					<dim>1</dim>
				</port>
			</output>
		</layer>
		<layer id="123" name="34153419_const" type="Const" version="opset1">
			<data element_type="f32" offset="62988" shape="24,1,1,1" size="96"/>
			<output>
				<port id="1" precision="FP32">
					<dim>24</dim>
					<dim>1</dim>
					<dim>1</dim>
					<dim>1</dim>
				</port>
			</output>
		</layer>
		<layer id="124" name="34163420_const" type="Const" version="opset1">
			<data element_type="f32" offset="63084" shape="24,1,1,1" size="96"/>
			<output>
				<port id="1" precision="FP32">
					<dim>24</dim>
					<dim>1</dim>
					<dim>1</dim>
					<dim>1</dim>
				</port>
			</output>
		</layer>
		<layer id="125" name="conv2_2/1/conv/WithoutBiases/fq_weights_1" type="FakeQuantize" version="opset1">
			<data levels="255"/>
			<input>
				<port id="0">
					<dim>24</dim>
					<dim>64</dim>
					<dim>1</dim>
					<dim>1</dim>
				</port>
				<port id="1">
					<dim>24</dim>
					<dim>1</dim>
					<dim>1</dim>
					<dim>1</dim>
				</port>
				<port id="2">
					<dim>24</dim>
					<dim>1</dim>
					<dim>1</dim>
					<dim>1</dim>
				</port>
				<port id="3">
					<dim>24</dim>
					<dim>1</dim>
					<dim>1</dim>
					<dim>1</dim>
				</port>
				<port id="4">
					<dim>24</dim>
					<dim>1</dim>
					<dim>1</dim>
					<dim>1</dim>
				</port>
			</input>
			<output>
				<port id="5" precision="FP32">
					<dim>24</dim>
					<dim>64</dim>
					<dim>1</dim>
					<dim>1</dim>
				</port>
			</output>
		</layer>
		<layer id="126" name="conv2_2/1/conv/WithoutBiases" type="Convolution" version="opset1">
			<data dilations="1,1" output_padding="0,0" pads_begin="0,0" pads_end="0,0" strides="1,1"/>
			<input>
				<port id="0">
					<dim>1</dim>
					<dim>64</dim>
					<dim>136</dim>
					<dim>248</dim>
				</port>
				<port id="1">
					<dim>24</dim>
					<dim>64</dim>
					<dim>1</dim>
					<dim>1</dim>
				</port>
			</input>
			<output>
				<port id="2" precision="FP32">
					<dim>1</dim>
					<dim>24</dim>
					<dim>136</dim>
					<dim>248</dim>
				</port>
			</output>
		</layer>
		<layer id="127" name="conv2_2/1/conv/Dims4419/copy_const585_const" type="Const" version="opset1">
			<data element_type="f32" offset="63180" shape="1,24,1,1" size="96"/>
			<output>
				<port id="1" precision="FP32">
					<dim>1</dim>
					<dim>24</dim>
					<dim>1</dim>
					<dim>1</dim>
				</port>
			</output>
		</layer>
		<layer id="128" name="conv2_2/1/conv" type="Add" version="opset1">
			<input>
				<port id="0">
					<dim>1</dim>
					<dim>24</dim>
					<dim>136</dim>
					<dim>248</dim>
				</port>
				<port id="1">
					<dim>1</dim>
					<dim>24</dim>
					<dim>1</dim>
					<dim>1</dim>
				</port>
			</input>
			<output>
				<port id="2" precision="FP32">
					<dim>1</dim>
					<dim>24</dim>
					<dim>136</dim>
					<dim>248</dim>
				</port>
			</output>
		</layer>
		<layer id="129" name="conv2_2/1/relu" type="ReLU" version="opset1">
			<input>
				<port id="0">
					<dim>1</dim>
					<dim>24</dim>
					<dim>136</dim>
					<dim>248</dim>
				</port>
			</input>
			<output>
				<port id="1" precision="FP32">
					<dim>1</dim>
					<dim>24</dim>
					<dim>136</dim>
					<dim>248</dim>
				</port>
			</output>
		</layer>
		<layer id="130" name="30533057_const" type="Const" version="opset1">
			<data element_type="f32" offset="10012" shape="" size="4"/>
			<output>
				<port id="1" precision="FP32"/>
			</output>
		</layer>
		<layer id="131" name="30543058_const" type="Const" version="opset1">
			<data element_type="f32" offset="63276" shape="" size="4"/>
			<output>
				<port id="1" precision="FP32"/>
			</output>
		</layer>
		<layer id="132" name="30553059_const" type="Const" version="opset1">
			<data element_type="f32" offset="10012" shape="" size="4"/>
			<output>
				<port id="1" precision="FP32"/>
			</output>
		</layer>
		<layer id="133" name="30563060_const" type="Const" version="opset1">
			<data element_type="f32" offset="63276" shape="" size="4"/>
			<output>
				<port id="1" precision="FP32"/>
			</output>
		</layer>
		<layer id="134" name="conv2_2/2/conv/WithoutBiases/fq_input_0" type="FakeQuantize" version="opset1">
			<data levels="256"/>
			<input>
				<port id="0">
					<dim>1</dim>
					<dim>24</dim>
					<dim>136</dim>
					<dim>248</dim>
				</port>
				<port id="1"/>
				<port id="2"/>
				<port id="3"/>
				<port id="4"/>
			</input>
			<output>
				<port id="5" precision="FP32">
					<dim>1</dim>
					<dim>24</dim>
					<dim>136</dim>
					<dim>248</dim>
				</port>
			</output>
		</layer>
		<layer id="135" name="270/Output_0/Data__const588_const" type="Const" version="opset1">
			<data element_type="f32" offset="63280" shape="24,24,3,3" size="20736"/>
			<output>
				<port id="1" precision="FP32">
					<dim>24</dim>
					<dim>24</dim>
					<dim>3</dim>
					<dim>3</dim>
				</port>
			</output>
		</layer>
		<layer id="136" name="30633067_const" type="Const" version="opset1">
			<data element_type="f32" offset="84016" shape="24,1,1,1" size="96"/>
			<output>
				<port id="1" precision="FP32">
					<dim>24</dim>
					<dim>1</dim>
					<dim>1</dim>
					<dim>1</dim>
				</port>
			</output>
		</layer>
		<layer id="137" name="30643068_const" type="Const" version="opset1">
			<data element_type="f32" offset="84112" shape="24,1,1,1" size="96"/>
			<output>
				<port id="1" precision="FP32">
					<dim>24</dim>
					<dim>1</dim>
					<dim>1</dim>
					<dim>1</dim>
				</port>
			</output>
		</layer>
		<layer id="138" name="30653069_const" type="Const" version="opset1">
			<data element_type="f32" offset="84016" shape="24,1,1,1" size="96"/>
			<output>
				<port id="1" precision="FP32">
					<dim>24</dim>
					<dim>1</dim>
					<dim>1</dim>
					<dim>1</dim>
				</port>
			</output>
		</layer>
		<layer id="139" name="30663070_const" type="Const" version="opset1">
			<data element_type="f32" offset="84112" shape="24,1,1,1" size="96"/>
			<output>
				<port id="1" precision="FP32">
					<dim>24</dim>
					<dim>1</dim>
					<dim>1</dim>
					<dim>1</dim>
				</port>
			</output>
		</layer>
		<layer id="140" name="conv2_2/2/conv/WithoutBiases/fq_weights_1" type="FakeQuantize" version="opset1">
			<data levels="255"/>
			<input>
				<port id="0">
					<dim>24</dim>
					<dim>24</dim>
					<dim>3</dim>
					<dim>3</dim>
				</port>
				<port id="1">
					<dim>24</dim>
					<dim>1</dim>
					<dim>1</dim>
					<dim>1</dim>
				</port>
				<port id="2">
					<dim>24</dim>
					<dim>1</dim>
					<dim>1</dim>
					<dim>1</dim>
				</port>
				<port id="3">
					<dim>24</dim>
					<dim>1</dim>
					<dim>1</dim>
					<dim>1</dim>
				</port>
				<port id="4">
					<dim>24</dim>
					<dim>1</dim>
					<dim>1</dim>
					<dim>1</dim>
				</port>
			</input>
			<output>
				<port id="5" precision="FP32">
					<dim>24</dim>
					<dim>24</dim>
					<dim>3</dim>
					<dim>3</dim>
				</port>
			</output>
		</layer>
		<layer id="141" name="conv2_2/2/conv/WithoutBiases" type="Convolution" version="opset1">
			<data dilations="1,1" output_padding="0,0" pads_begin="1,1" pads_end="1,1" strides="1,1"/>
			<input>
				<port id="0">
					<dim>1</dim>
					<dim>24</dim>
					<dim>136</dim>
					<dim>248</dim>
				</port>
				<port id="1">
					<dim>24</dim>
					<dim>24</dim>
					<dim>3</dim>
					<dim>3</dim>
				</port>
			</input>
			<output>
				<port id="2" precision="FP32">
					<dim>1</dim>
					<dim>24</dim>
					<dim>136</dim>
					<dim>248</dim>
				</port>
			</output>
		</layer>
		<layer id="142" name="conv2_2/2/conv/Dims4125/copy_const590_const" type="Const" version="opset1">
			<data element_type="f32" offset="84208" shape="1,24,1,1" size="96"/>
			<output>
				<port id="1" precision="FP32">
					<dim>1</dim>
					<dim>24</dim>
					<dim>1</dim>
					<dim>1</dim>
				</port>
			</output>
		</layer>
		<layer id="143" name="conv2_2/2/conv" type="Add" version="opset1">
			<input>
				<port id="0">
					<dim>1</dim>
					<dim>24</dim>
					<dim>136</dim>
					<dim>248</dim>
				</port>
				<port id="1">
					<dim>1</dim>
					<dim>24</dim>
					<dim>1</dim>
					<dim>1</dim>
				</port>
			</input>
			<output>
				<port id="2" precision="FP32">
					<dim>1</dim>
					<dim>24</dim>
					<dim>136</dim>
					<dim>248</dim>
				</port>
			</output>
		</layer>
		<layer id="144" name="49224926_const" type="Const" version="opset1">
			<data element_type="f32" offset="84304" shape="" size="4"/>
			<output>
				<port id="1" precision="FP32"/>
			</output>
		</layer>
		<layer id="145" name="49234927_const" type="Const" version="opset1">
			<data element_type="f32" offset="84308" shape="" size="4"/>
			<output>
				<port id="1" precision="FP32"/>
			</output>
		</layer>
		<layer id="146" name="49244928_const" type="Const" version="opset1">
			<data element_type="f32" offset="84304" shape="" size="4"/>
			<output>
				<port id="1" precision="FP32"/>
			</output>
		</layer>
		<layer id="147" name="49254929_const" type="Const" version="opset1">
			<data element_type="f32" offset="84308" shape="" size="4"/>
			<output>
				<port id="1" precision="FP32"/>
			</output>
		</layer>
		<layer id="148" name="conv2_2/2/concat/fq_input_0" type="FakeQuantize" version="opset1">
			<data levels="256"/>
			<input>
				<port id="0">
					<dim>1</dim>
					<dim>24</dim>
					<dim>136</dim>
					<dim>248</dim>
				</port>
				<port id="1"/>
				<port id="2"/>
				<port id="3"/>
				<port id="4"/>
			</input>
			<output>
				<port id="5" precision="FP32">
					<dim>1</dim>
					<dim>24</dim>
					<dim>136</dim>
					<dim>248</dim>
				</port>
			</output>
		</layer>
		<layer id="149" name="conv2_2/2/neg/mul_/Negate" type="Negative" version="opset1">
			<input>
				<port id="0">
					<dim>1</dim>
					<dim>24</dim>
					<dim>136</dim>
					<dim>248</dim>
				</port>
			</input>
			<output>
				<port id="1" precision="FP32">
					<dim>1</dim>
					<dim>24</dim>
					<dim>136</dim>
					<dim>248</dim>
				</port>
			</output>
		</layer>
		<layer id="150" name="49324936_const" type="Const" version="opset1">
			<data element_type="f32" offset="84304" shape="" size="4"/>
			<output>
				<port id="1" precision="FP32"/>
			</output>
		</layer>
		<layer id="151" name="49334937_const" type="Const" version="opset1">
			<data element_type="f32" offset="84308" shape="" size="4"/>
			<output>
				<port id="1" precision="FP32"/>
			</output>
		</layer>
		<layer id="152" name="49344938_const" type="Const" version="opset1">
			<data element_type="f32" offset="84304" shape="" size="4"/>
			<output>
				<port id="1" precision="FP32"/>
			</output>
		</layer>
		<layer id="153" name="49354939_const" type="Const" version="opset1">
			<data element_type="f32" offset="84308" shape="" size="4"/>
			<output>
				<port id="1" precision="FP32"/>
			</output>
		</layer>
		<layer id="154" name="conv2_2/2/concat/fq_input_1" type="FakeQuantize" version="opset1">
			<data levels="256"/>
			<input>
				<port id="0">
					<dim>1</dim>
					<dim>24</dim>
					<dim>136</dim>
					<dim>248</dim>
				</port>
				<port id="1"/>
				<port id="2"/>
				<port id="3"/>
				<port id="4"/>
			</input>
			<output>
				<port id="5" precision="FP32">
					<dim>1</dim>
					<dim>24</dim>
					<dim>136</dim>
					<dim>248</dim>
				</port>
			</output>
		</layer>
		<layer id="155" name="conv2_2/2/concat" type="Concat" version="opset1">
			<data axis="1"/>
			<input>
				<port id="0">
					<dim>1</dim>
					<dim>24</dim>
					<dim>136</dim>
					<dim>248</dim>
				</port>
				<port id="1">
					<dim>1</dim>
					<dim>24</dim>
					<dim>136</dim>
					<dim>248</dim>
				</port>
			</input>
			<output>
				<port id="2" precision="FP32">
					<dim>1</dim>
					<dim>48</dim>
					<dim>136</dim>
					<dim>248</dim>
				</port>
			</output>
		</layer>
		<layer id="156" name="360/Output_0/Data_/copy_const594_const" type="Const" version="opset1">
			<data element_type="f32" offset="84312" shape="1,48,1,1" size="192"/>
			<output>
				<port id="1" precision="FP32">
					<dim>1</dim>
					<dim>48</dim>
					<dim>1</dim>
					<dim>1</dim>
				</port>
			</output>
		</layer>
		<layer id="157" name="conv2_2/2/scale/Mul_" type="Multiply" version="opset1">
			<input>
				<port id="0">
					<dim>1</dim>
					<dim>48</dim>
					<dim>136</dim>
					<dim>248</dim>
				</port>
				<port id="1">
					<dim>1</dim>
					<dim>48</dim>
					<dim>1</dim>
					<dim>1</dim>
				</port>
			</input>
			<output>
				<port id="2" precision="FP32">
					<dim>1</dim>
					<dim>48</dim>
					<dim>136</dim>
					<dim>248</dim>
				</port>
			</output>
		</layer>
		<layer id="158" name="361/Output_0/Data_/copy_const596_const" type="Const" version="opset1">
			<data element_type="f32" offset="84504" shape="1,48,1,1" size="192"/>
			<output>
				<port id="1" precision="FP32">
					<dim>1</dim>
					<dim>48</dim>
					<dim>1</dim>
					<dim>1</dim>
				</port>
			</output>
		</layer>
		<layer id="159" name="conv2_2/2/scale/Add_" type="Add" version="opset1">
			<input>
				<port id="0">
					<dim>1</dim>
					<dim>48</dim>
					<dim>136</dim>
					<dim>248</dim>
				</port>
				<port id="1">
					<dim>1</dim>
					<dim>48</dim>
					<dim>1</dim>
					<dim>1</dim>
				</port>
			</input>
			<output>
				<port id="2" precision="FP32">
					<dim>1</dim>
					<dim>48</dim>
					<dim>136</dim>
					<dim>248</dim>
				</port>
			</output>
		</layer>
		<layer id="160" name="conv2_2/2/relu" type="ReLU" version="opset1">
			<input>
				<port id="0">
					<dim>1</dim>
					<dim>48</dim>
					<dim>136</dim>
					<dim>248</dim>
				</port>
			</input>
			<output>
				<port id="1" precision="FP32">
					<dim>1</dim>
					<dim>48</dim>
					<dim>136</dim>
					<dim>248</dim>
				</port>
			</output>
		</layer>
		<layer id="161" name="19731977_const" type="Const" version="opset1">
			<data element_type="f32" offset="10012" shape="" size="4"/>
			<output>
				<port id="1" precision="FP32"/>
			</output>
		</layer>
		<layer id="162" name="19741978_const" type="Const" version="opset1">
			<data element_type="f32" offset="84696" shape="" size="4"/>
			<output>
				<port id="1" precision="FP32"/>
			</output>
		</layer>
		<layer id="163" name="19751979_const" type="Const" version="opset1">
			<data element_type="f32" offset="10012" shape="" size="4"/>
			<output>
				<port id="1" precision="FP32"/>
			</output>
		</layer>
		<layer id="164" name="19761980_const" type="Const" version="opset1">
			<data element_type="f32" offset="84696" shape="" size="4"/>
			<output>
				<port id="1" precision="FP32"/>
			</output>
		</layer>
		<layer id="165" name="conv2_2/3/conv/WithoutBiases/fq_input_0" type="FakeQuantize" version="opset1">
			<data levels="256"/>
			<input>
				<port id="0">
					<dim>1</dim>
					<dim>48</dim>
					<dim>136</dim>
					<dim>248</dim>
				</port>
				<port id="1"/>
				<port id="2"/>
				<port id="3"/>
				<port id="4"/>
			</input>
			<output>
				<port id="5" precision="FP32">
					<dim>1</dim>
					<dim>48</dim>
					<dim>136</dim>
					<dim>248</dim>
				</port>
			</output>
		</layer>
		<layer id="166" name="328/Output_0/Data__const599_const" type="Const" version="opset1">
			<data element_type="f32" offset="84700" shape="64,48,1,1" size="12288"/>
			<output>
				<port id="1" precision="FP32">
					<dim>64</dim>
					<dim>48</dim>
					<dim>1</dim>
					<dim>1</dim>
				</port>
			</output>
		</layer>
		<layer id="167" name="19831987_const" type="Const" version="opset1">
			<data element_type="f32" offset="96988" shape="64,1,1,1" size="256"/>
			<output>
				<port id="1" precision="FP32">
					<dim>64</dim>
					<dim>1</dim>
					<dim>1</dim>
					<dim>1</dim>
				</port>
			</output>
		</layer>
		<layer id="168" name="19841988_const" type="Const" version="opset1">
			<data element_type="f32" offset="97244" shape="64,1,1,1" size="256"/>
			<output>
				<port id="1" precision="FP32">
					<dim>64</dim>
					<dim>1</dim>
					<dim>1</dim>
					<dim>1</dim>
				</port>
			</output>
		</layer>
		<layer id="169" name="19851989_const" type="Const" version="opset1">
			<data element_type="f32" offset="96988" shape="64,1,1,1" size="256"/>
			<output>
				<port id="1" precision="FP32">
					<dim>64</dim>
					<dim>1</dim>
					<dim>1</dim>
					<dim>1</dim>
				</port>
			</output>
		</layer>
		<layer id="170" name="19861990_const" type="Const" version="opset1">
			<data element_type="f32" offset="97244" shape="64,1,1,1" size="256"/>
			<output>
				<port id="1" precision="FP32">
					<dim>64</dim>
					<dim>1</dim>
					<dim>1</dim>
					<dim>1</dim>
				</port>
			</output>
		</layer>
		<layer id="171" name="conv2_2/3/conv/WithoutBiases/fq_weights_1" type="FakeQuantize" version="opset1">
			<data levels="255"/>
			<input>
				<port id="0">
					<dim>64</dim>
					<dim>48</dim>
					<dim>1</dim>
					<dim>1</dim>
				</port>
				<port id="1">
					<dim>64</dim>
					<dim>1</dim>
					<dim>1</dim>
					<dim>1</dim>
				</port>
				<port id="2">
					<dim>64</dim>
					<dim>1</dim>
					<dim>1</dim>
					<dim>1</dim>
				</port>
				<port id="3">
					<dim>64</dim>
					<dim>1</dim>
					<dim>1</dim>
					<dim>1</dim>
				</port>
				<port id="4">
					<dim>64</dim>
					<dim>1</dim>
					<dim>1</dim>
					<dim>1</dim>
				</port>
			</input>
			<output>
				<port id="5" precision="FP32">
					<dim>64</dim>
					<dim>48</dim>
					<dim>1</dim>
					<dim>1</dim>
				</port>
			</output>
		</layer>
		<layer id="172" name="conv2_2/3/conv/WithoutBiases" type="Convolution" version="opset1">
			<data dilations="1,1" output_padding="0,0" pads_begin="0,0" pads_end="0,0" strides="1,1"/>
			<input>
				<port id="0">
					<dim>1</dim>
					<dim>48</dim>
					<dim>136</dim>
					<dim>248</dim>
				</port>
				<port id="1">
					<dim>64</dim>
					<dim>48</dim>
					<dim>1</dim>
					<dim>1</dim>
				</port>
			</input>
			<output>
				<port id="2" precision="FP32">
					<dim>1</dim>
					<dim>64</dim>
					<dim>136</dim>
					<dim>248</dim>
				</port>
			</output>
		</layer>
		<layer id="173" name="conv2_2/3/conv/Dims4575/copy_const601_const" type="Const" version="opset1">
			<data element_type="f32" offset="97500" shape="1,64,1,1" size="256"/>
			<output>
				<port id="1" precision="FP32">
					<dim>1</dim>
					<dim>64</dim>
					<dim>1</dim>
					<dim>1</dim>
				</port>
			</output>
		</layer>
		<layer id="174" name="conv2_2/3/conv" type="Add" version="opset1">
			<input>
				<port id="0">
					<dim>1</dim>
					<dim>64</dim>
					<dim>136</dim>
					<dim>248</dim>
				</port>
				<port id="1">
					<dim>1</dim>
					<dim>64</dim>
					<dim>1</dim>
					<dim>1</dim>
				</port>
			</input>
			<output>
				<port id="2" precision="FP32">
					<dim>1</dim>
					<dim>64</dim>
					<dim>136</dim>
					<dim>248</dim>
				</port>
			</output>
		</layer>
		<layer id="175" name="17431747_const" type="Const" version="opset1">
			<data element_type="f32" offset="97756" shape="" size="4"/>
			<output>
				<port id="1" precision="FP32"/>
			</output>
		</layer>
		<layer id="176" name="17441748_const" type="Const" version="opset1">
			<data element_type="f32" offset="97760" shape="" size="4"/>
			<output>
				<port id="1" precision="FP32"/>
			</output>
		</layer>
		<layer id="177" name="17451749_const" type="Const" version="opset1">
			<data element_type="f32" offset="97756" shape="" size="4"/>
			<output>
				<port id="1" precision="FP32"/>
			</output>
		</layer>
		<layer id="178" name="17461750_const" type="Const" version="opset1">
			<data element_type="f32" offset="97760" shape="" size="4"/>
			<output>
				<port id="1" precision="FP32"/>
			</output>
		</layer>
		<layer id="179" name="conv2_2/fq_input_0" type="FakeQuantize" version="opset1">
			<data levels="256"/>
			<input>
				<port id="0">
					<dim>1</dim>
					<dim>64</dim>
					<dim>136</dim>
					<dim>248</dim>
				</port>
				<port id="1"/>
				<port id="2"/>
				<port id="3"/>
				<port id="4"/>
			</input>
			<output>
				<port id="5" precision="FP32">
					<dim>1</dim>
					<dim>64</dim>
					<dim>136</dim>
					<dim>248</dim>
				</port>
			</output>
		</layer>
		<layer id="180" name="conv2_2" type="Add" version="opset1">
			<input>
				<port id="0">
					<dim>1</dim>
					<dim>64</dim>
					<dim>136</dim>
					<dim>248</dim>
				</port>
				<port id="1">
					<dim>1</dim>
					<dim>64</dim>
					<dim>136</dim>
					<dim>248</dim>
				</port>
			</input>
			<output>
				<port id="2" precision="FP32">
					<dim>1</dim>
					<dim>64</dim>
					<dim>136</dim>
					<dim>248</dim>
				</port>
			</output>
		</layer>
		<layer id="181" name="49724976_const" type="Const" version="opset1">
			<data element_type="f32" offset="97764" shape="" size="4"/>
			<output>
				<port id="1" precision="FP32"/>
			</output>
		</layer>
		<layer id="182" name="49734977_const" type="Const" version="opset1">
			<data element_type="f32" offset="97768" shape="" size="4"/>
			<output>
				<port id="1" precision="FP32"/>
			</output>
		</layer>
		<layer id="183" name="49744978_const" type="Const" version="opset1">
			<data element_type="f32" offset="97764" shape="" size="4"/>
			<output>
				<port id="1" precision="FP32"/>
			</output>
		</layer>
		<layer id="184" name="49754979_const" type="Const" version="opset1">
			<data element_type="f32" offset="97768" shape="" size="4"/>
			<output>
				<port id="1" precision="FP32"/>
			</output>
		</layer>
		<layer id="185" name="Pooling_8827/fq_input_0" type="FakeQuantize" version="opset1">
			<data levels="256"/>
			<input>
				<port id="0">
					<dim>1</dim>
					<dim>64</dim>
					<dim>136</dim>
					<dim>248</dim>
				</port>
				<port id="1"/>
				<port id="2"/>
				<port id="3"/>
				<port id="4"/>
			</input>
			<output>
				<port id="5" precision="FP32">
					<dim>1</dim>
					<dim>64</dim>
					<dim>136</dim>
					<dim>248</dim>
				</port>
			</output>
		</layer>
		<layer id="186" name="415/Output_0/Data__const604_const" type="Const" version="opset1">
			<data element_type="f32" offset="97772" shape="24,64,1,1" size="6144"/>
			<output>
				<port id="1" precision="FP32">
					<dim>24</dim>
					<dim>64</dim>
					<dim>1</dim>
					<dim>1</dim>
				</port>
			</output>
		</layer>
		<layer id="187" name="34733477_const" type="Const" version="opset1">
			<data element_type="f32" offset="103916" shape="24,1,1,1" size="96"/>
			<output>
				<port id="1" precision="FP32">
					<dim>24</dim>
					<dim>1</dim>
					<dim>1</dim>
					<dim>1</dim>
				</port>
			</output>
		</layer>
		<layer id="188" name="34743478_const" type="Const" version="opset1">
			<data element_type="f32" offset="104012" shape="24,1,1,1" size="96"/>
			<output>
				<port id="1" precision="FP32">
					<dim>24</dim>
					<dim>1</dim>
					<dim>1</dim>
					<dim>1</dim>
				</port>
			</output>
		</layer>
		<layer id="189" name="34753479_const" type="Const" version="opset1">
			<data element_type="f32" offset="103916" shape="24,1,1,1" size="96"/>
			<output>
				<port id="1" precision="FP32">
					<dim>24</dim>
					<dim>1</dim>
					<dim>1</dim>
					<dim>1</dim>
				</port>
			</output>
		</layer>
		<layer id="190" name="34763480_const" type="Const" version="opset1">
			<data element_type="f32" offset="104012" shape="24,1,1,1" size="96"/>
			<output>
				<port id="1" precision="FP32">
					<dim>24</dim>
					<dim>1</dim>
					<dim>1</dim>
					<dim>1</dim>
				</port>
			</output>
		</layer>
		<layer id="191" name="conv2_3/1/conv/WithoutBiases/fq_weights_1" type="FakeQuantize" version="opset1">
			<data levels="255"/>
			<input>
				<port id="0">
					<dim>24</dim>
					<dim>64</dim>
					<dim>1</dim>
					<dim>1</dim>
				</port>
				<port id="1">
					<dim>24</dim>
					<dim>1</dim>
					<dim>1</dim>
					<dim>1</dim>
				</port>
				<port id="2">
					<dim>24</dim>
					<dim>1</dim>
					<dim>1</dim>
					<dim>1</dim>
				</port>
				<port id="3">
					<dim>24</dim>
					<dim>1</dim>
					<dim>1</dim>
					<dim>1</dim>
				</port>
				<port id="4">
					<dim>24</dim>
					<dim>1</dim>
					<dim>1</dim>
					<dim>1</dim>
				</port>
			</input>
			<output>
				<port id="5" precision="FP32">
					<dim>24</dim>
					<dim>64</dim>
					<dim>1</dim>
					<dim>1</dim>
				</port>
			</output>
		</layer>
		<layer id="192" name="conv2_3/1/conv/WithoutBiases" type="Convolution" version="opset1">
			<data dilations="1,1" output_padding="0,0" pads_begin="0,0" pads_end="0,0" strides="1,1"/>
			<input>
				<port id="0">
					<dim>1</dim>
					<dim>64</dim>
					<dim>136</dim>
					<dim>248</dim>
				</port>
				<port id="1">
					<dim>24</dim>
					<dim>64</dim>
					<dim>1</dim>
					<dim>1</dim>
				</port>
			</input>
			<output>
				<port id="2" precision="FP32">
					<dim>1</dim>
					<dim>24</dim>
					<dim>136</dim>
					<dim>248</dim>
				</port>
			</output>
		</layer>
		<layer id="193" name="conv2_3/1/conv/Dims4503/copy_const606_const" type="Const" version="opset1">
			<data element_type="f32" offset="104108" shape="1,24,1,1" size="96"/>
			<output>
				<port id="1" precision="FP32">
					<dim>1</dim>
					<dim>24</dim>
					<dim>1</dim>
					<dim>1</dim>
				</port>
			</output>
		</layer>
		<layer id="194" name="conv2_3/1/conv" type="Add" version="opset1">
			<input>
				<port id="0">
					<dim>1</dim>
					<dim>24</dim>
					<dim>136</dim>
					<dim>248</dim>
				</port>
				<port id="1">
					<dim>1</dim>
					<dim>24</dim>
					<dim>1</dim>
					<dim>1</dim>
				</port>
			</input>
			<output>
				<port id="2" precision="FP32">
					<dim>1</dim>
					<dim>24</dim>
					<dim>136</dim>
					<dim>248</dim>
				</port>
			</output>
		</layer>
		<layer id="195" name="conv2_3/1/relu" type="ReLU" version="opset1">
			<input>
				<port id="0">
					<dim>1</dim>
					<dim>24</dim>
					<dim>136</dim>
					<dim>248</dim>
				</port>
			</input>
			<output>
				<port id="1" precision="FP32">
					<dim>1</dim>
					<dim>24</dim>
					<dim>136</dim>
					<dim>248</dim>
				</port>
			</output>
		</layer>
		<layer id="196" name="27232727_const" type="Const" version="opset1">
			<data element_type="f32" offset="10012" shape="" size="4"/>
			<output>
				<port id="1" precision="FP32"/>
			</output>
		</layer>
		<layer id="197" name="27242728_const" type="Const" version="opset1">
			<data element_type="f32" offset="104204" shape="" size="4"/>
			<output>
				<port id="1" precision="FP32"/>
			</output>
		</layer>
		<layer id="198" name="27252729_const" type="Const" version="opset1">
			<data element_type="f32" offset="10012" shape="" size="4"/>
			<output>
				<port id="1" precision="FP32"/>
			</output>
		</layer>
		<layer id="199" name="27262730_const" type="Const" version="opset1">
			<data element_type="f32" offset="104204" shape="" size="4"/>
			<output>
				<port id="1" precision="FP32"/>
			</output>
		</layer>
		<layer id="200" name="conv2_3/2/conv/WithoutBiases/fq_input_0" type="FakeQuantize" version="opset1">
			<data levels="256"/>
			<input>
				<port id="0">
					<dim>1</dim>
					<dim>24</dim>
					<dim>136</dim>
					<dim>248</dim>
				</port>
				<port id="1"/>
				<port id="2"/>
				<port id="3"/>
				<port id="4"/>
			</input>
			<output>
				<port id="5" precision="FP32">
					<dim>1</dim>
					<dim>24</dim>
					<dim>136</dim>
					<dim>248</dim>
				</port>
			</output>
		</layer>
		<layer id="201" name="372/Output_0/Data__const609_const" type="Const" version="opset1">
			<data element_type="f32" offset="104208" shape="24,24,3,3" size="20736"/>
			<output>
				<port id="1" precision="FP32">
					<dim>24</dim>
					<dim>24</dim>
					<dim>3</dim>
					<dim>3</dim>
				</port>
			</output>
		</layer>
		<layer id="202" name="27332737_const" type="Const" version="opset1">
			<data element_type="f32" offset="124944" shape="24,1,1,1" size="96"/>
			<output>
				<port id="1" precision="FP32">
					<dim>24</dim>
					<dim>1</dim>
					<dim>1</dim>
					<dim>1</dim>
				</port>
			</output>
		</layer>
		<layer id="203" name="27342738_const" type="Const" version="opset1">
			<data element_type="f32" offset="125040" shape="24,1,1,1" size="96"/>
			<output>
				<port id="1" precision="FP32">
					<dim>24</dim>
					<dim>1</dim>
					<dim>1</dim>
					<dim>1</dim>
				</port>
			</output>
		</layer>
		<layer id="204" name="27352739_const" type="Const" version="opset1">
			<data element_type="f32" offset="124944" shape="24,1,1,1" size="96"/>
			<output>
				<port id="1" precision="FP32">
					<dim>24</dim>
					<dim>1</dim>
					<dim>1</dim>
					<dim>1</dim>
				</port>
			</output>
		</layer>
		<layer id="205" name="27362740_const" type="Const" version="opset1">
			<data element_type="f32" offset="125040" shape="24,1,1,1" size="96"/>
			<output>
				<port id="1" precision="FP32">
					<dim>24</dim>
					<dim>1</dim>
					<dim>1</dim>
					<dim>1</dim>
				</port>
			</output>
		</layer>
		<layer id="206" name="conv2_3/2/conv/WithoutBiases/fq_weights_1" type="FakeQuantize" version="opset1">
			<data levels="255"/>
			<input>
				<port id="0">
					<dim>24</dim>
					<dim>24</dim>
					<dim>3</dim>
					<dim>3</dim>
				</port>
				<port id="1">
					<dim>24</dim>
					<dim>1</dim>
					<dim>1</dim>
					<dim>1</dim>
				</port>
				<port id="2">
					<dim>24</dim>
					<dim>1</dim>
					<dim>1</dim>
					<dim>1</dim>
				</port>
				<port id="3">
					<dim>24</dim>
					<dim>1</dim>
					<dim>1</dim>
					<dim>1</dim>
				</port>
				<port id="4">
					<dim>24</dim>
					<dim>1</dim>
					<dim>1</dim>
					<dim>1</dim>
				</port>
			</input>
			<output>
				<port id="5" precision="FP32">
					<dim>24</dim>
					<dim>24</dim>
					<dim>3</dim>
					<dim>3</dim>
				</port>
			</output>
		</layer>
		<layer id="207" name="conv2_3/2/conv/WithoutBiases" type="Convolution" version="opset1">
			<data dilations="1,1" output_padding="0,0" pads_begin="1,1" pads_end="1,1" strides="1,1"/>
			<input>
				<port id="0">
					<dim>1</dim>
					<dim>24</dim>
					<dim>136</dim>
					<dim>248</dim>
				</port>
				<port id="1">
					<dim>24</dim>
					<dim>24</dim>
					<dim>3</dim>
					<dim>3</dim>
				</port>
			</input>
			<output>
				<port id="2" precision="FP32">
					<dim>1</dim>
					<dim>24</dim>
					<dim>136</dim>
					<dim>248</dim>
				</port>
			</output>
		</layer>
		<layer id="208" name="conv2_3/2/conv/Dims4335/copy_const611_const" type="Const" version="opset1">
			<data element_type="f32" offset="125136" shape="1,24,1,1" size="96"/>
			<output>
				<port id="1" precision="FP32">
					<dim>1</dim>
					<dim>24</dim>
					<dim>1</dim>
					<dim>1</dim>
				</port>
			</output>
		</layer>
		<layer id="209" name="conv2_3/2/conv" type="Add" version="opset1">
			<input>
				<port id="0">
					<dim>1</dim>
					<dim>24</dim>
					<dim>136</dim>
					<dim>248</dim>
				</port>
				<port id="1">
					<dim>1</dim>
					<dim>24</dim>
					<dim>1</dim>
					<dim>1</dim>
				</port>
			</input>
			<output>
				<port id="2" precision="FP32">
					<dim>1</dim>
					<dim>24</dim>
					<dim>136</dim>
					<dim>248</dim>
				</port>
			</output>
		</layer>
		<layer id="210" name="49524956_const" type="Const" version="opset1">
			<data element_type="f32" offset="125232" shape="" size="4"/>
			<output>
				<port id="1" precision="FP32"/>
			</output>
		</layer>
		<layer id="211" name="49534957_const" type="Const" version="opset1">
			<data element_type="f32" offset="125236" shape="" size="4"/>
			<output>
				<port id="1" precision="FP32"/>
			</output>
		</layer>
		<layer id="212" name="49544958_const" type="Const" version="opset1">
			<data element_type="f32" offset="125232" shape="" size="4"/>
			<output>
				<port id="1" precision="FP32"/>
			</output>
		</layer>
		<layer id="213" name="49554959_const" type="Const" version="opset1">
			<data element_type="f32" offset="125236" shape="" size="4"/>
			<output>
				<port id="1" precision="FP32"/>
			</output>
		</layer>
		<layer id="214" name="conv2_3/2/concat/fq_input_0" type="FakeQuantize" version="opset1">
			<data levels="256"/>
			<input>
				<port id="0">
					<dim>1</dim>
					<dim>24</dim>
					<dim>136</dim>
					<dim>248</dim>
				</port>
				<port id="1"/>
				<port id="2"/>
				<port id="3"/>
				<port id="4"/>
			</input>
			<output>
				<port id="5" precision="FP32">
					<dim>1</dim>
					<dim>24</dim>
					<dim>136</dim>
					<dim>248</dim>
				</port>
			</output>
		</layer>
		<layer id="215" name="conv2_3/2/neg/mul_/Negate" type="Negative" version="opset1">
			<input>
				<port id="0">
					<dim>1</dim>
					<dim>24</dim>
					<dim>136</dim>
					<dim>248</dim>
				</port>
			</input>
			<output>
				<port id="1" precision="FP32">
					<dim>1</dim>
					<dim>24</dim>
					<dim>136</dim>
					<dim>248</dim>
				</port>
			</output>
		</layer>
		<layer id="216" name="49624966_const" type="Const" version="opset1">
			<data element_type="f32" offset="125232" shape="" size="4"/>
			<output>
				<port id="1" precision="FP32"/>
			</output>
		</layer>
		<layer id="217" name="49634967_const" type="Const" version="opset1">
			<data element_type="f32" offset="125236" shape="" size="4"/>
			<output>
				<port id="1" precision="FP32"/>
			</output>
		</layer>
		<layer id="218" name="49644968_const" type="Const" version="opset1">
			<data element_type="f32" offset="125232" shape="" size="4"/>
			<output>
				<port id="1" precision="FP32"/>
			</output>
		</layer>
		<layer id="219" name="49654969_const" type="Const" version="opset1">
			<data element_type="f32" offset="125236" shape="" size="4"/>
			<output>
				<port id="1" precision="FP32"/>
			</output>
		</layer>
		<layer id="220" name="conv2_3/2/concat/fq_input_1" type="FakeQuantize" version="opset1">
			<data levels="256"/>
			<input>
				<port id="0">
					<dim>1</dim>
					<dim>24</dim>
					<dim>136</dim>
					<dim>248</dim>
				</port>
				<port id="1"/>
				<port id="2"/>
				<port id="3"/>
				<port id="4"/>
			</input>
			<output>
				<port id="5" precision="FP32">
					<dim>1</dim>
					<dim>24</dim>
					<dim>136</dim>
					<dim>248</dim>
				</port>
			</output>
		</layer>
		<layer id="221" name="conv2_3/2/concat" type="Concat" version="opset1">
			<data axis="1"/>
			<input>
				<port id="0">
					<dim>1</dim>
					<dim>24</dim>
					<dim>136</dim>
					<dim>248</dim>
				</port>
				<port id="1">
					<dim>1</dim>
					<dim>24</dim>
					<dim>136</dim>
					<dim>248</dim>
				</port>
			</input>
			<output>
				<port id="2" precision="FP32">
					<dim>1</dim>
					<dim>48</dim>
					<dim>136</dim>
					<dim>248</dim>
				</port>
			</output>
		</layer>
		<layer id="222" name="398/Output_0/Data_/copy_const615_const" type="Const" version="opset1">
			<data element_type="f32" offset="125240" shape="1,48,1,1" size="192"/>
			<output>
				<port id="1" precision="FP32">
					<dim>1</dim>
					<dim>48</dim>
					<dim>1</dim>
					<dim>1</dim>
				</port>
			</output>
		</layer>
		<layer id="223" name="20032007_const" type="Const" version="opset1">
			<data element_type="f32" offset="125432" shape="1,1,1,1" size="4"/>
			<output>
				<port id="1" precision="FP32">
					<dim>1</dim>
					<dim>1</dim>
					<dim>1</dim>
					<dim>1</dim>
				</port>
			</output>
		</layer>
		<layer id="224" name="20042008_const" type="Const" version="opset1">
			<data element_type="f32" offset="125436" shape="1,1,1,1" size="4"/>
			<output>
				<port id="1" precision="FP32">
					<dim>1</dim>
					<dim>1</dim>
					<dim>1</dim>
					<dim>1</dim>
				</port>
			</output>
		</layer>
		<layer id="225" name="20052009_const" type="Const" version="opset1">
			<data element_type="f32" offset="125432" shape="1,1,1,1" size="4"/>
			<output>
				<port id="1" precision="FP32">
					<dim>1</dim>
					<dim>1</dim>
					<dim>1</dim>
					<dim>1</dim>
				</port>
			</output>
		</layer>
		<layer id="226" name="20062010_const" type="Const" version="opset1">
			<data element_type="f32" offset="125436" shape="1,1,1,1" size="4"/>
			<output>
				<port id="1" precision="FP32">
					<dim>1</dim>
					<dim>1</dim>
					<dim>1</dim>
					<dim>1</dim>
				</port>
			</output>
		</layer>
		<layer id="227" name="conv2_3/2/scale/Mul_/fq_input_1" type="FakeQuantize" version="opset1">
			<data levels="255"/>
			<input>
				<port id="0">
					<dim>1</dim>
					<dim>48</dim>
					<dim>1</dim>
					<dim>1</dim>
				</port>
				<port id="1">
					<dim>1</dim>
					<dim>1</dim>
					<dim>1</dim>
					<dim>1</dim>
				</port>
				<port id="2">
					<dim>1</dim>
					<dim>1</dim>
					<dim>1</dim>
					<dim>1</dim>
				</port>
				<port id="3">
					<dim>1</dim>
					<dim>1</dim>
					<dim>1</dim>
					<dim>1</dim>
				</port>
				<port id="4">
					<dim>1</dim>
					<dim>1</dim>
					<dim>1</dim>
					<dim>1</dim>
				</port>
			</input>
			<output>
				<port id="5" precision="FP32">
					<dim>1</dim>
					<dim>48</dim>
					<dim>1</dim>
					<dim>1</dim>
				</port>
			</output>
		</layer>
		<layer id="228" name="conv2_3/2/scale/Mul_" type="Multiply" version="opset1">
			<input>
				<port id="0">
					<dim>1</dim>
					<dim>48</dim>
					<dim>136</dim>
					<dim>248</dim>
				</port>
				<port id="1">
					<dim>1</dim>
					<dim>48</dim>
					<dim>1</dim>
					<dim>1</dim>
				</port>
			</input>
			<output>
				<port id="2" precision="FP32">
					<dim>1</dim>
					<dim>48</dim>
					<dim>136</dim>
					<dim>248</dim>
				</port>
			</output>
		</layer>
		<layer id="229" name="49424946_const" type="Const" version="opset1">
			<data element_type="f32" offset="125440" shape="" size="4"/>
			<output>
				<port id="1" precision="FP32"/>
			</output>
		</layer>
		<layer id="230" name="49434947_const" type="Const" version="opset1">
			<data element_type="f32" offset="125444" shape="" size="4"/>
			<output>
				<port id="1" precision="FP32"/>
			</output>
		</layer>
		<layer id="231" name="49444948_const" type="Const" version="opset1">
			<data element_type="f32" offset="125440" shape="" size="4"/>
			<output>
				<port id="1" precision="FP32"/>
			</output>
		</layer>
		<layer id="232" name="49454949_const" type="Const" version="opset1">
			<data element_type="f32" offset="125444" shape="" size="4"/>
			<output>
				<port id="1" precision="FP32"/>
			</output>
		</layer>
		<layer id="233" name="Pooling_/fq_input_0" type="FakeQuantize" version="opset1">
			<data levels="256"/>
			<input>
				<port id="0">
					<dim>1</dim>
					<dim>48</dim>
					<dim>136</dim>
					<dim>248</dim>
				</port>
				<port id="1"/>
				<port id="2"/>
				<port id="3"/>
				<port id="4"/>
			</input>
			<output>
				<port id="5" precision="FP32">
					<dim>1</dim>
					<dim>48</dim>
					<dim>136</dim>
					<dim>248</dim>
				</port>
			</output>
		</layer>
		<layer id="234" name="Pooling_" type="MaxPool" version="opset1">
			<data kernel="1,1" pads_begin="0,0" pads_end="0,0" strides="2,2"/>
			<input>
				<port id="0">
					<dim>1</dim>
					<dim>48</dim>
					<dim>136</dim>
					<dim>248</dim>
				</port>
			</input>
			<output>
				<port id="1" precision="FP32">
					<dim>1</dim>
					<dim>48</dim>
					<dim>68</dim>
					<dim>124</dim>
				</port>
			</output>
		</layer>
		<layer id="235" name="399/Output_0/Data_/copy_const618_const" type="Const" version="opset1">
			<data element_type="f32" offset="125448" shape="1,48,1,1" size="192"/>
			<output>
				<port id="1" precision="FP32">
					<dim>1</dim>
					<dim>48</dim>
					<dim>1</dim>
					<dim>1</dim>
				</port>
			</output>
		</layer>
		<layer id="236" name="15331537_const" type="Const" version="opset1">
			<data element_type="f32" offset="125640" shape="1,1,1,1" size="4"/>
			<output>
				<port id="1" precision="FP32">
					<dim>1</dim>
					<dim>1</dim>
					<dim>1</dim>
					<dim>1</dim>
				</port>
			</output>
		</layer>
		<layer id="237" name="15341538_const" type="Const" version="opset1">
			<data element_type="f32" offset="125644" shape="1,1,1,1" size="4"/>
			<output>
				<port id="1" precision="FP32">
					<dim>1</dim>
					<dim>1</dim>
					<dim>1</dim>
					<dim>1</dim>
				</port>
			</output>
		</layer>
		<layer id="238" name="15351539_const" type="Const" version="opset1">
			<data element_type="f32" offset="125640" shape="1,1,1,1" size="4"/>
			<output>
				<port id="1" precision="FP32">
					<dim>1</dim>
					<dim>1</dim>
					<dim>1</dim>
					<dim>1</dim>
				</port>
			</output>
		</layer>
		<layer id="239" name="15361540_const" type="Const" version="opset1">
			<data element_type="f32" offset="125644" shape="1,1,1,1" size="4"/>
			<output>
				<port id="1" precision="FP32">
					<dim>1</dim>
					<dim>1</dim>
					<dim>1</dim>
					<dim>1</dim>
				</port>
			</output>
		</layer>
		<layer id="240" name="conv2_3/2/scale/Add_/fq_input_1" type="FakeQuantize" version="opset1">
			<data levels="255"/>
			<input>
				<port id="0">
					<dim>1</dim>
					<dim>48</dim>
					<dim>1</dim>
					<dim>1</dim>
				</port>
				<port id="1">
					<dim>1</dim>
					<dim>1</dim>
					<dim>1</dim>
					<dim>1</dim>
				</port>
				<port id="2">
					<dim>1</dim>
					<dim>1</dim>
					<dim>1</dim>
					<dim>1</dim>
				</port>
				<port id="3">
					<dim>1</dim>
					<dim>1</dim>
					<dim>1</dim>
					<dim>1</dim>
				</port>
				<port id="4">
					<dim>1</dim>
					<dim>1</dim>
					<dim>1</dim>
					<dim>1</dim>
				</port>
			</input>
			<output>
				<port id="5" precision="FP32">
					<dim>1</dim>
					<dim>48</dim>
					<dim>1</dim>
					<dim>1</dim>
				</port>
			</output>
		</layer>
		<layer id="241" name="conv2_3/2/scale/Add_" type="Add" version="opset1">
			<input>
				<port id="0">
					<dim>1</dim>
					<dim>48</dim>
					<dim>68</dim>
					<dim>124</dim>
				</port>
				<port id="1">
					<dim>1</dim>
					<dim>48</dim>
					<dim>1</dim>
					<dim>1</dim>
				</port>
			</input>
			<output>
				<port id="2" precision="FP32">
					<dim>1</dim>
					<dim>48</dim>
					<dim>68</dim>
					<dim>124</dim>
				</port>
			</output>
		</layer>
		<layer id="242" name="conv2_3/2/relu" type="ReLU" version="opset1">
			<input>
				<port id="0">
					<dim>1</dim>
					<dim>48</dim>
					<dim>68</dim>
					<dim>124</dim>
				</port>
			</input>
			<output>
				<port id="1" precision="FP32">
					<dim>1</dim>
					<dim>48</dim>
					<dim>68</dim>
					<dim>124</dim>
				</port>
			</output>
		</layer>
		<layer id="243" name="25132517_const" type="Const" version="opset1">
			<data element_type="f32" offset="10012" shape="" size="4"/>
			<output>
				<port id="1" precision="FP32"/>
			</output>
		</layer>
		<layer id="244" name="25142518_const" type="Const" version="opset1">
			<data element_type="f32" offset="125648" shape="" size="4"/>
			<output>
				<port id="1" precision="FP32"/>
			</output>
		</layer>
		<layer id="245" name="25152519_const" type="Const" version="opset1">
			<data element_type="f32" offset="10012" shape="" size="4"/>
			<output>
				<port id="1" precision="FP32"/>
			</output>
		</layer>
		<layer id="246" name="25162520_const" type="Const" version="opset1">
			<data element_type="f32" offset="125648" shape="" size="4"/>
			<output>
				<port id="1" precision="FP32"/>
			</output>
		</layer>
		<layer id="247" name="conv2_3/3/conv/WithoutBiases/fq_input_0" type="FakeQuantize" version="opset1">
			<data levels="256"/>
			<input>
				<port id="0">
					<dim>1</dim>
					<dim>48</dim>
					<dim>68</dim>
					<dim>124</dim>
				</port>
				<port id="1"/>
				<port id="2"/>
				<port id="3"/>
				<port id="4"/>
			</input>
			<output>
				<port id="5" precision="FP32">
					<dim>1</dim>
					<dim>48</dim>
					<dim>68</dim>
					<dim>124</dim>
				</port>
			</output>
		</layer>
		<layer id="248" name="254/Output_0/Data__const621_const" type="Const" version="opset1">
			<data element_type="f32" offset="125652" shape="64,48,1,1" size="12288"/>
			<output>
				<port id="1" precision="FP32">
					<dim>64</dim>
					<dim>48</dim>
					<dim>1</dim>
					<dim>1</dim>
				</port>
			</output>
		</layer>
		<layer id="249" name="25232527_const" type="Const" version="opset1">
			<data element_type="f32" offset="137940" shape="64,1,1,1" size="256"/>
			<output>
				<port id="1" precision="FP32">
					<dim>64</dim>
					<dim>1</dim>
					<dim>1</dim>
					<dim>1</dim>
				</port>
			</output>
		</layer>
		<layer id="250" name="25242528_const" type="Const" version="opset1">
			<data element_type="f32" offset="138196" shape="64,1,1,1" size="256"/>
			<output>
				<port id="1" precision="FP32">
					<dim>64</dim>
					<dim>1</dim>
					<dim>1</dim>
					<dim>1</dim>
				</port>
			</output>
		</layer>
		<layer id="251" name="25252529_const" type="Const" version="opset1">
			<data element_type="f32" offset="137940" shape="64,1,1,1" size="256"/>
			<output>
				<port id="1" precision="FP32">
					<dim>64</dim>
					<dim>1</dim>
					<dim>1</dim>
					<dim>1</dim>
				</port>
			</output>
		</layer>
		<layer id="252" name="25262530_const" type="Const" version="opset1">
			<data element_type="f32" offset="138196" shape="64,1,1,1" size="256"/>
			<output>
				<port id="1" precision="FP32">
					<dim>64</dim>
					<dim>1</dim>
					<dim>1</dim>
					<dim>1</dim>
				</port>
			</output>
		</layer>
		<layer id="253" name="conv2_3/3/conv/WithoutBiases/fq_weights_1" type="FakeQuantize" version="opset1">
			<data levels="255"/>
			<input>
				<port id="0">
					<dim>64</dim>
					<dim>48</dim>
					<dim>1</dim>
					<dim>1</dim>
				</port>
				<port id="1">
					<dim>64</dim>
					<dim>1</dim>
					<dim>1</dim>
					<dim>1</dim>
				</port>
				<port id="2">
					<dim>64</dim>
					<dim>1</dim>
					<dim>1</dim>
					<dim>1</dim>
				</port>
				<port id="3">
					<dim>64</dim>
					<dim>1</dim>
					<dim>1</dim>
					<dim>1</dim>
				</port>
				<port id="4">
					<dim>64</dim>
					<dim>1</dim>
					<dim>1</dim>
					<dim>1</dim>
				</port>
			</input>
			<output>
				<port id="5" precision="FP32">
					<dim>64</dim>
					<dim>48</dim>
					<dim>1</dim>
					<dim>1</dim>
				</port>
			</output>
		</layer>
		<layer id="254" name="conv2_3/3/conv/WithoutBiases" type="Convolution" version="opset1">
			<data dilations="1,1" output_padding="0,0" pads_begin="0,0" pads_end="0,0" strides="1,1"/>
			<input>
				<port id="0">
					<dim>1</dim>
					<dim>48</dim>
					<dim>68</dim>
					<dim>124</dim>
				</port>
				<port id="1">
					<dim>64</dim>
					<dim>48</dim>
					<dim>1</dim>
					<dim>1</dim>
				</port>
			</input>
			<output>
				<port id="2" precision="FP32">
					<dim>1</dim>
					<dim>64</dim>
					<dim>68</dim>
					<dim>124</dim>
				</port>
			</output>
		</layer>
		<layer id="255" name="conv2_3/3/conv/Dims4371/copy_const623_const" type="Const" version="opset1">
			<data element_type="f32" offset="138452" shape="1,64,1,1" size="256"/>
			<output>
				<port id="1" precision="FP32">
					<dim>1</dim>
					<dim>64</dim>
					<dim>1</dim>
					<dim>1</dim>
				</port>
			</output>
		</layer>
		<layer id="256" name="conv2_3/3/conv" type="Add" version="opset1">
			<input>
				<port id="0">
					<dim>1</dim>
					<dim>64</dim>
					<dim>68</dim>
					<dim>124</dim>
				</port>
				<port id="1">
					<dim>1</dim>
					<dim>64</dim>
					<dim>1</dim>
					<dim>1</dim>
				</port>
			</input>
			<output>
				<port id="2" precision="FP32">
					<dim>1</dim>
					<dim>64</dim>
					<dim>68</dim>
					<dim>124</dim>
				</port>
			</output>
		</layer>
		<layer id="257" name="25632567_const" type="Const" version="opset1">
			<data element_type="f32" offset="138708" shape="" size="4"/>
			<output>
				<port id="1" precision="FP32"/>
			</output>
		</layer>
		<layer id="258" name="25642568_const" type="Const" version="opset1">
			<data element_type="f32" offset="138712" shape="" size="4"/>
			<output>
				<port id="1" precision="FP32"/>
			</output>
		</layer>
		<layer id="259" name="25652569_const" type="Const" version="opset1">
			<data element_type="f32" offset="138708" shape="" size="4"/>
			<output>
				<port id="1" precision="FP32"/>
			</output>
		</layer>
		<layer id="260" name="25662570_const" type="Const" version="opset1">
			<data element_type="f32" offset="138712" shape="" size="4"/>
			<output>
				<port id="1" precision="FP32"/>
			</output>
		</layer>
		<layer id="261" name="conv2_3/fq_input_0" type="FakeQuantize" version="opset1">
			<data levels="256"/>
			<input>
				<port id="0">
					<dim>1</dim>
					<dim>64</dim>
					<dim>68</dim>
					<dim>124</dim>
				</port>
				<port id="1"/>
				<port id="2"/>
				<port id="3"/>
				<port id="4"/>
			</input>
			<output>
				<port id="5" precision="FP32">
					<dim>1</dim>
					<dim>64</dim>
					<dim>68</dim>
					<dim>124</dim>
				</port>
			</output>
		</layer>
		<layer id="262" name="Pooling_8827" type="MaxPool" version="opset1">
			<data kernel="1,1" pads_begin="0,0" pads_end="0,0" strides="2,2"/>
			<input>
				<port id="0">
					<dim>1</dim>
					<dim>64</dim>
					<dim>136</dim>
					<dim>248</dim>
				</port>
			</input>
			<output>
				<port id="1" precision="FP32">
					<dim>1</dim>
					<dim>64</dim>
					<dim>68</dim>
					<dim>124</dim>
				</port>
			</output>
		</layer>
		<layer id="263" name="conv2_3" type="Add" version="opset1">
			<input>
				<port id="0">
					<dim>1</dim>
					<dim>64</dim>
					<dim>68</dim>
					<dim>124</dim>
				</port>
				<port id="1">
					<dim>1</dim>
					<dim>64</dim>
					<dim>68</dim>
					<dim>124</dim>
				</port>
			</input>
			<output>
				<port id="2" precision="FP32">
					<dim>1</dim>
					<dim>64</dim>
					<dim>68</dim>
					<dim>124</dim>
				</port>
			</output>
		</layer>
		<layer id="264" name="36133617_const" type="Const" version="opset1">
			<data element_type="f32" offset="138716" shape="" size="4"/>
			<output>
				<port id="1" precision="FP32"/>
			</output>
		</layer>
		<layer id="265" name="36143618_const" type="Const" version="opset1">
			<data element_type="f32" offset="138720" shape="" size="4"/>
			<output>
				<port id="1" precision="FP32"/>
			</output>
		</layer>
		<layer id="266" name="36153619_const" type="Const" version="opset1">
			<data element_type="f32" offset="138716" shape="" size="4"/>
			<output>
				<port id="1" precision="FP32"/>
			</output>
		</layer>
		<layer id="267" name="36163620_const" type="Const" version="opset1">
			<data element_type="f32" offset="138720" shape="" size="4"/>
			<output>
				<port id="1" precision="FP32"/>
			</output>
		</layer>
		<layer id="268" name="conv3_1/1/conv/WithoutBiases/fq_input_0" type="FakeQuantize" version="opset1">
			<data levels="256"/>
			<input>
				<port id="0">
					<dim>1</dim>
					<dim>64</dim>
					<dim>68</dim>
					<dim>124</dim>
				</port>
				<port id="1"/>
				<port id="2"/>
				<port id="3"/>
				<port id="4"/>
			</input>
			<output>
				<port id="5" precision="FP32">
					<dim>1</dim>
					<dim>64</dim>
					<dim>68</dim>
					<dim>124</dim>
				</port>
			</output>
		</layer>
		<layer id="269" name="300/Output_0/Data__const627_const" type="Const" version="opset1">
			<data element_type="f32" offset="138724" shape="48,64,1,1" size="12288"/>
			<output>
				<port id="1" precision="FP32">
					<dim>48</dim>
					<dim>64</dim>
					<dim>1</dim>
					<dim>1</dim>
				</port>
			</output>
		</layer>
		<layer id="270" name="36233627_const" type="Const" version="opset1">
			<data element_type="f32" offset="151012" shape="48,1,1,1" size="192"/>
			<output>
				<port id="1" precision="FP32">
					<dim>48</dim>
					<dim>1</dim>
					<dim>1</dim>
					<dim>1</dim>
				</port>
			</output>
		</layer>
		<layer id="271" name="36243628_const" type="Const" version="opset1">
			<data element_type="f32" offset="151204" shape="48,1,1,1" size="192"/>
			<output>
				<port id="1" precision="FP32">
					<dim>48</dim>
					<dim>1</dim>
					<dim>1</dim>
					<dim>1</dim>
				</port>
			</output>
		</layer>
		<layer id="272" name="36253629_const" type="Const" version="opset1">
			<data element_type="f32" offset="151012" shape="48,1,1,1" size="192"/>
			<output>
				<port id="1" precision="FP32">
					<dim>48</dim>
					<dim>1</dim>
					<dim>1</dim>
					<dim>1</dim>
				</port>
			</output>
		</layer>
		<layer id="273" name="36263630_const" type="Const" version="opset1">
			<data element_type="f32" offset="151204" shape="48,1,1,1" size="192"/>
			<output>
				<port id="1" precision="FP32">
					<dim>48</dim>
					<dim>1</dim>
					<dim>1</dim>
					<dim>1</dim>
				</port>
			</output>
		</layer>
		<layer id="274" name="conv3_1/1/conv/WithoutBiases/fq_weights_1" type="FakeQuantize" version="opset1">
			<data levels="255"/>
			<input>
				<port id="0">
					<dim>48</dim>
					<dim>64</dim>
					<dim>1</dim>
					<dim>1</dim>
				</port>
				<port id="1">
					<dim>48</dim>
					<dim>1</dim>
					<dim>1</dim>
					<dim>1</dim>
				</port>
				<port id="2">
					<dim>48</dim>
					<dim>1</dim>
					<dim>1</dim>
					<dim>1</dim>
				</port>
				<port id="3">
					<dim>48</dim>
					<dim>1</dim>
					<dim>1</dim>
					<dim>1</dim>
				</port>
				<port id="4">
					<dim>48</dim>
					<dim>1</dim>
					<dim>1</dim>
					<dim>1</dim>
				</port>
			</input>
			<output>
				<port id="5" precision="FP32">
					<dim>48</dim>
					<dim>64</dim>
					<dim>1</dim>
					<dim>1</dim>
				</port>
			</output>
		</layer>
		<layer id="275" name="conv3_1/1/conv/WithoutBiases" type="Convolution" version="opset1">
			<data dilations="1,1" output_padding="0,0" pads_begin="0,0" pads_end="0,0" strides="1,1"/>
			<input>
				<port id="0">
					<dim>1</dim>
					<dim>64</dim>
					<dim>68</dim>
					<dim>124</dim>
				</port>
				<port id="1">
					<dim>48</dim>
					<dim>64</dim>
					<dim>1</dim>
					<dim>1</dim>
				</port>
			</input>
			<output>
				<port id="2" precision="FP32">
					<dim>1</dim>
					<dim>48</dim>
					<dim>68</dim>
					<dim>124</dim>
				</port>
			</output>
		</layer>
		<layer id="276" name="conv3_1/1/conv/Dims4287/copy_const629_const" type="Const" version="opset1">
			<data element_type="f32" offset="151396" shape="1,48,1,1" size="192"/>
			<output>
				<port id="1" precision="FP32">
					<dim>1</dim>
					<dim>48</dim>
					<dim>1</dim>
					<dim>1</dim>
				</port>
			</output>
		</layer>
		<layer id="277" name="conv3_1/1/conv" type="Add" version="opset1">
			<input>
				<port id="0">
					<dim>1</dim>
					<dim>48</dim>
					<dim>68</dim>
					<dim>124</dim>
				</port>
				<port id="1">
					<dim>1</dim>
					<dim>48</dim>
					<dim>1</dim>
					<dim>1</dim>
				</port>
			</input>
			<output>
				<port id="2" precision="FP32">
					<dim>1</dim>
					<dim>48</dim>
					<dim>68</dim>
					<dim>124</dim>
				</port>
			</output>
		</layer>
		<layer id="278" name="conv3_1/1/relu" type="ReLU" version="opset1">
			<input>
				<port id="0">
					<dim>1</dim>
					<dim>48</dim>
					<dim>68</dim>
					<dim>124</dim>
				</port>
			</input>
			<output>
				<port id="1" precision="FP32">
					<dim>1</dim>
					<dim>48</dim>
					<dim>68</dim>
					<dim>124</dim>
				</port>
			</output>
		</layer>
		<layer id="279" name="20132017_const" type="Const" version="opset1">
			<data element_type="f32" offset="10012" shape="" size="4"/>
			<output>
				<port id="1" precision="FP32"/>
			</output>
		</layer>
		<layer id="280" name="20142018_const" type="Const" version="opset1">
			<data element_type="f32" offset="151588" shape="" size="4"/>
			<output>
				<port id="1" precision="FP32"/>
			</output>
		</layer>
		<layer id="281" name="20152019_const" type="Const" version="opset1">
			<data element_type="f32" offset="10012" shape="" size="4"/>
			<output>
				<port id="1" precision="FP32"/>
			</output>
		</layer>
		<layer id="282" name="20162020_const" type="Const" version="opset1">
			<data element_type="f32" offset="151588" shape="" size="4"/>
			<output>
				<port id="1" precision="FP32"/>
			</output>
		</layer>
		<layer id="283" name="conv3_1/2/conv/WithoutBiases/fq_input_0" type="FakeQuantize" version="opset1">
			<data levels="256"/>
			<input>
				<port id="0">
					<dim>1</dim>
					<dim>48</dim>
					<dim>68</dim>
					<dim>124</dim>
				</port>
				<port id="1"/>
				<port id="2"/>
				<port id="3"/>
				<port id="4"/>
			</input>
			<output>
				<port id="5" precision="FP32">
					<dim>1</dim>
					<dim>48</dim>
					<dim>68</dim>
					<dim>124</dim>
				</port>
			</output>
		</layer>
		<layer id="284" name="304/Output_0/Data__const632_const" type="Const" version="opset1">
			<data element_type="f32" offset="151592" shape="48,48,3,3" size="82944"/>
			<output>
				<port id="1" precision="FP32">
					<dim>48</dim>
					<dim>48</dim>
					<dim>3</dim>
					<dim>3</dim>
				</port>
			</output>
		</layer>
		<layer id="285" name="20232027_const" type="Const" version="opset1">
			<data element_type="f32" offset="234536" shape="48,1,1,1" size="192"/>
			<output>
				<port id="1" precision="FP32">
					<dim>48</dim>
					<dim>1</dim>
					<dim>1</dim>
					<dim>1</dim>
				</port>
			</output>
		</layer>
		<layer id="286" name="20242028_const" type="Const" version="opset1">
			<data element_type="f32" offset="234728" shape="48,1,1,1" size="192"/>
			<output>
				<port id="1" precision="FP32">
					<dim>48</dim>
					<dim>1</dim>
					<dim>1</dim>
					<dim>1</dim>
				</port>
			</output>
		</layer>
		<layer id="287" name="20252029_const" type="Const" version="opset1">
			<data element_type="f32" offset="234536" shape="48,1,1,1" size="192"/>
			<output>
				<port id="1" precision="FP32">
					<dim>48</dim>
					<dim>1</dim>
					<dim>1</dim>
					<dim>1</dim>
				</port>
			</output>
		</layer>
		<layer id="288" name="20262030_const" type="Const" version="opset1">
			<data element_type="f32" offset="234728" shape="48,1,1,1" size="192"/>
			<output>
				<port id="1" precision="FP32">
					<dim>48</dim>
					<dim>1</dim>
					<dim>1</dim>
					<dim>1</dim>
				</port>
			</output>
		</layer>
		<layer id="289" name="conv3_1/2/conv/WithoutBiases/fq_weights_1" type="FakeQuantize" version="opset1">
			<data levels="255"/>
			<input>
				<port id="0">
					<dim>48</dim>
					<dim>48</dim>
					<dim>3</dim>
					<dim>3</dim>
				</port>
				<port id="1">
					<dim>48</dim>
					<dim>1</dim>
					<dim>1</dim>
					<dim>1</dim>
				</port>
				<port id="2">
					<dim>48</dim>
					<dim>1</dim>
					<dim>1</dim>
					<dim>1</dim>
				</port>
				<port id="3">
					<dim>48</dim>
					<dim>1</dim>
					<dim>1</dim>
					<dim>1</dim>
				</port>
				<port id="4">
					<dim>48</dim>
					<dim>1</dim>
					<dim>1</dim>
					<dim>1</dim>
				</port>
			</input>
			<output>
				<port id="5" precision="FP32">
					<dim>48</dim>
					<dim>48</dim>
					<dim>3</dim>
					<dim>3</dim>
				</port>
			</output>
		</layer>
		<layer id="290" name="conv3_1/2/conv/WithoutBiases" type="Convolution" version="opset1">
			<data dilations="1,1" output_padding="0,0" pads_begin="1,1" pads_end="1,1" strides="1,1"/>
			<input>
				<port id="0">
					<dim>1</dim>
					<dim>48</dim>
					<dim>68</dim>
					<dim>124</dim>
				</port>
				<port id="1">
					<dim>48</dim>
					<dim>48</dim>
					<dim>3</dim>
					<dim>3</dim>
				</port>
			</input>
			<output>
				<port id="2" precision="FP32">
					<dim>1</dim>
					<dim>48</dim>
					<dim>68</dim>
					<dim>124</dim>
				</port>
			</output>
		</layer>
		<layer id="291" name="conv3_1/2/conv/Dims4431/copy_const634_const" type="Const" version="opset1">
			<data element_type="f32" offset="234920" shape="1,48,1,1" size="192"/>
			<output>
				<port id="1" precision="FP32">
					<dim>1</dim>
					<dim>48</dim>
					<dim>1</dim>
					<dim>1</dim>
				</port>
			</output>
		</layer>
		<layer id="292" name="conv3_1/2/conv" type="Add" version="opset1">
			<input>
				<port id="0">
					<dim>1</dim>
					<dim>48</dim>
					<dim>68</dim>
					<dim>124</dim>
				</port>
				<port id="1">
					<dim>1</dim>
					<dim>48</dim>
					<dim>1</dim>
					<dim>1</dim>
				</port>
			</input>
			<output>
				<port id="2" precision="FP32">
					<dim>1</dim>
					<dim>48</dim>
					<dim>68</dim>
					<dim>124</dim>
				</port>
			</output>
		</layer>
		<layer id="293" name="49824986_const" type="Const" version="opset1">
			<data element_type="f32" offset="235112" shape="" size="4"/>
			<output>
				<port id="1" precision="FP32"/>
			</output>
		</layer>
		<layer id="294" name="49834987_const" type="Const" version="opset1">
			<data element_type="f32" offset="235116" shape="" size="4"/>
			<output>
				<port id="1" precision="FP32"/>
			</output>
		</layer>
		<layer id="295" name="49844988_const" type="Const" version="opset1">
			<data element_type="f32" offset="235112" shape="" size="4"/>
			<output>
				<port id="1" precision="FP32"/>
			</output>
		</layer>
		<layer id="296" name="49854989_const" type="Const" version="opset1">
			<data element_type="f32" offset="235116" shape="" size="4"/>
			<output>
				<port id="1" precision="FP32"/>
			</output>
		</layer>
		<layer id="297" name="conv3_1/2/concat/fq_input_0" type="FakeQuantize" version="opset1">
			<data levels="256"/>
			<input>
				<port id="0">
					<dim>1</dim>
					<dim>48</dim>
					<dim>68</dim>
					<dim>124</dim>
				</port>
				<port id="1"/>
				<port id="2"/>
				<port id="3"/>
				<port id="4"/>
			</input>
			<output>
				<port id="5" precision="FP32">
					<dim>1</dim>
					<dim>48</dim>
					<dim>68</dim>
					<dim>124</dim>
				</port>
			</output>
		</layer>
		<layer id="298" name="conv3_1/2/neg/mul_/Negate" type="Negative" version="opset1">
			<input>
				<port id="0">
					<dim>1</dim>
					<dim>48</dim>
					<dim>68</dim>
					<dim>124</dim>
				</port>
			</input>
			<output>
				<port id="1" precision="FP32">
					<dim>1</dim>
					<dim>48</dim>
					<dim>68</dim>
					<dim>124</dim>
				</port>
			</output>
		</layer>
		<layer id="299" name="49924996_const" type="Const" version="opset1">
			<data element_type="f32" offset="235112" shape="" size="4"/>
			<output>
				<port id="1" precision="FP32"/>
			</output>
		</layer>
		<layer id="300" name="49934997_const" type="Const" version="opset1">
			<data element_type="f32" offset="235116" shape="" size="4"/>
			<output>
				<port id="1" precision="FP32"/>
			</output>
		</layer>
		<layer id="301" name="49944998_const" type="Const" version="opset1">
			<data element_type="f32" offset="235112" shape="" size="4"/>
			<output>
				<port id="1" precision="FP32"/>
			</output>
		</layer>
		<layer id="302" name="49954999_const" type="Const" version="opset1">
			<data element_type="f32" offset="235116" shape="" size="4"/>
			<output>
				<port id="1" precision="FP32"/>
			</output>
		</layer>
		<layer id="303" name="conv3_1/2/concat/fq_input_1" type="FakeQuantize" version="opset1">
			<data levels="256"/>
			<input>
				<port id="0">
					<dim>1</dim>
					<dim>48</dim>
					<dim>68</dim>
					<dim>124</dim>
				</port>
				<port id="1"/>
				<port id="2"/>
				<port id="3"/>
				<port id="4"/>
			</input>
			<output>
				<port id="5" precision="FP32">
					<dim>1</dim>
					<dim>48</dim>
					<dim>68</dim>
					<dim>124</dim>
				</port>
			</output>
		</layer>
		<layer id="304" name="conv3_1/2/concat" type="Concat" version="opset1">
			<data axis="1"/>
			<input>
				<port id="0">
					<dim>1</dim>
					<dim>48</dim>
					<dim>68</dim>
					<dim>124</dim>
				</port>
				<port id="1">
					<dim>1</dim>
					<dim>48</dim>
					<dim>68</dim>
					<dim>124</dim>
				</port>
			</input>
			<output>
				<port id="2" precision="FP32">
					<dim>1</dim>
					<dim>96</dim>
					<dim>68</dim>
					<dim>124</dim>
				</port>
			</output>
		</layer>
		<layer id="305" name="284/Output_0/Data_/copy_const638_const" type="Const" version="opset1">
			<data element_type="f32" offset="235120" shape="1,96,1,1" size="384"/>
			<output>
				<port id="1" precision="FP32">
					<dim>1</dim>
					<dim>96</dim>
					<dim>1</dim>
					<dim>1</dim>
				</port>
			</output>
		</layer>
		<layer id="306" name="conv3_1/2/scale/Mul_" type="Multiply" version="opset1">
			<input>
				<port id="0">
					<dim>1</dim>
					<dim>96</dim>
					<dim>68</dim>
					<dim>124</dim>
				</port>
				<port id="1">
					<dim>1</dim>
					<dim>96</dim>
					<dim>1</dim>
					<dim>1</dim>
				</port>
			</input>
			<output>
				<port id="2" precision="FP32">
					<dim>1</dim>
					<dim>96</dim>
					<dim>68</dim>
					<dim>124</dim>
				</port>
			</output>
		</layer>
		<layer id="307" name="285/Output_0/Data_/copy_const640_const" type="Const" version="opset1">
			<data element_type="f32" offset="235504" shape="1,96,1,1" size="384"/>
			<output>
				<port id="1" precision="FP32">
					<dim>1</dim>
					<dim>96</dim>
					<dim>1</dim>
					<dim>1</dim>
				</port>
			</output>
		</layer>
		<layer id="308" name="conv3_1/2/scale/Add_" type="Add" version="opset1">
			<input>
				<port id="0">
					<dim>1</dim>
					<dim>96</dim>
					<dim>68</dim>
					<dim>124</dim>
				</port>
				<port id="1">
					<dim>1</dim>
					<dim>96</dim>
					<dim>1</dim>
					<dim>1</dim>
				</port>
			</input>
			<output>
				<port id="2" precision="FP32">
					<dim>1</dim>
					<dim>96</dim>
					<dim>68</dim>
					<dim>124</dim>
				</port>
			</output>
		</layer>
		<layer id="309" name="conv3_1/2/relu" type="ReLU" version="opset1">
			<input>
				<port id="0">
					<dim>1</dim>
					<dim>96</dim>
					<dim>68</dim>
					<dim>124</dim>
				</port>
			</input>
			<output>
				<port id="1" precision="FP32">
					<dim>1</dim>
					<dim>96</dim>
					<dim>68</dim>
					<dim>124</dim>
				</port>
			</output>
		</layer>
		<layer id="310" name="20932097_const" type="Const" version="opset1">
			<data element_type="f32" offset="10012" shape="" size="4"/>
			<output>
				<port id="1" precision="FP32"/>
			</output>
		</layer>
		<layer id="311" name="20942098_const" type="Const" version="opset1">
			<data element_type="f32" offset="235888" shape="" size="4"/>
			<output>
				<port id="1" precision="FP32"/>
			</output>
		</layer>
		<layer id="312" name="20952099_const" type="Const" version="opset1">
			<data element_type="f32" offset="10012" shape="" size="4"/>
			<output>
				<port id="1" precision="FP32"/>
			</output>
		</layer>
		<layer id="313" name="20962100_const" type="Const" version="opset1">
			<data element_type="f32" offset="235888" shape="" size="4"/>
			<output>
				<port id="1" precision="FP32"/>
			</output>
		</layer>
		<layer id="314" name="conv3_1/3/conv/WithoutBiases/fq_input_0" type="FakeQuantize" version="opset1">
			<data levels="256"/>
			<input>
				<port id="0">
					<dim>1</dim>
					<dim>96</dim>
					<dim>68</dim>
					<dim>124</dim>
				</port>
				<port id="1"/>
				<port id="2"/>
				<port id="3"/>
				<port id="4"/>
			</input>
			<output>
				<port id="5" precision="FP32">
					<dim>1</dim>
					<dim>96</dim>
					<dim>68</dim>
					<dim>124</dim>
				</port>
			</output>
		</layer>
		<layer id="315" name="336/Output_0/Data__const643_const" type="Const" version="opset1">
			<data element_type="f32" offset="235892" shape="128,96,1,1" size="49152"/>
			<output>
				<port id="1" precision="FP32">
					<dim>128</dim>
					<dim>96</dim>
					<dim>1</dim>
					<dim>1</dim>
				</port>
			</output>
		</layer>
		<layer id="316" name="21032107_const" type="Const" version="opset1">
			<data element_type="f32" offset="285044" shape="128,1,1,1" size="512"/>
			<output>
				<port id="1" precision="FP32">
					<dim>128</dim>
					<dim>1</dim>
					<dim>1</dim>
					<dim>1</dim>
				</port>
			</output>
		</layer>
		<layer id="317" name="21042108_const" type="Const" version="opset1">
			<data element_type="f32" offset="285556" shape="128,1,1,1" size="512"/>
			<output>
				<port id="1" precision="FP32">
					<dim>128</dim>
					<dim>1</dim>
					<dim>1</dim>
					<dim>1</dim>
				</port>
			</output>
		</layer>
		<layer id="318" name="21052109_const" type="Const" version="opset1">
			<data element_type="f32" offset="285044" shape="128,1,1,1" size="512"/>
			<output>
				<port id="1" precision="FP32">
					<dim>128</dim>
					<dim>1</dim>
					<dim>1</dim>
					<dim>1</dim>
				</port>
			</output>
		</layer>
		<layer id="319" name="21062110_const" type="Const" version="opset1">
			<data element_type="f32" offset="285556" shape="128,1,1,1" size="512"/>
			<output>
				<port id="1" precision="FP32">
					<dim>128</dim>
					<dim>1</dim>
					<dim>1</dim>
					<dim>1</dim>
				</port>
			</output>
		</layer>
		<layer id="320" name="conv3_1/3/conv/WithoutBiases/fq_weights_1" type="FakeQuantize" version="opset1">
			<data levels="255"/>
			<input>
				<port id="0">
					<dim>128</dim>
					<dim>96</dim>
					<dim>1</dim>
					<dim>1</dim>
				</port>
				<port id="1">
					<dim>128</dim>
					<dim>1</dim>
					<dim>1</dim>
					<dim>1</dim>
				</port>
				<port id="2">
					<dim>128</dim>
					<dim>1</dim>
					<dim>1</dim>
					<dim>1</dim>
				</port>
				<port id="3">
					<dim>128</dim>
					<dim>1</dim>
					<dim>1</dim>
					<dim>1</dim>
				</port>
				<port id="4">
					<dim>128</dim>
					<dim>1</dim>
					<dim>1</dim>
					<dim>1</dim>
				</port>
			</input>
			<output>
				<port id="5" precision="FP32">
					<dim>128</dim>
					<dim>96</dim>
					<dim>1</dim>
					<dim>1</dim>
				</port>
			</output>
		</layer>
		<layer id="321" name="conv3_1/3/conv/WithoutBiases" type="Convolution" version="opset1">
			<data dilations="1,1" output_padding="0,0" pads_begin="0,0" pads_end="0,0" strides="1,1"/>
			<input>
				<port id="0">
					<dim>1</dim>
					<dim>96</dim>
					<dim>68</dim>
					<dim>124</dim>
				</port>
				<port id="1">
					<dim>128</dim>
					<dim>96</dim>
					<dim>1</dim>
					<dim>1</dim>
				</port>
			</input>
			<output>
				<port id="2" precision="FP32">
					<dim>1</dim>
					<dim>128</dim>
					<dim>68</dim>
					<dim>124</dim>
				</port>
			</output>
		</layer>
		<layer id="322" name="conv3_1/3/conv/Dims4455/copy_const645_const" type="Const" version="opset1">
			<data element_type="f32" offset="286068" shape="1,128,1,1" size="512"/>
			<output>
				<port id="1" precision="FP32">
					<dim>1</dim>
					<dim>128</dim>
					<dim>1</dim>
					<dim>1</dim>
				</port>
			</output>
		</layer>
		<layer id="323" name="conv3_1/3/conv" type="Add" version="opset1">
			<input>
				<port id="0">
					<dim>1</dim>
					<dim>128</dim>
					<dim>68</dim>
					<dim>124</dim>
				</port>
				<port id="1">
					<dim>1</dim>
					<dim>128</dim>
					<dim>1</dim>
					<dim>1</dim>
				</port>
			</input>
			<output>
				<port id="2" precision="FP32">
					<dim>1</dim>
					<dim>128</dim>
					<dim>68</dim>
					<dim>124</dim>
				</port>
			</output>
		</layer>
		<layer id="324" name="29832987_const" type="Const" version="opset1">
			<data element_type="f32" offset="286580" shape="" size="4"/>
			<output>
				<port id="1" precision="FP32"/>
			</output>
		</layer>
		<layer id="325" name="29842988_const" type="Const" version="opset1">
			<data element_type="f32" offset="286584" shape="" size="4"/>
			<output>
				<port id="1" precision="FP32"/>
			</output>
		</layer>
		<layer id="326" name="29852989_const" type="Const" version="opset1">
			<data element_type="f32" offset="286580" shape="" size="4"/>
			<output>
				<port id="1" precision="FP32"/>
			</output>
		</layer>
		<layer id="327" name="29862990_const" type="Const" version="opset1">
			<data element_type="f32" offset="286584" shape="" size="4"/>
			<output>
				<port id="1" precision="FP32"/>
			</output>
		</layer>
		<layer id="328" name="conv3_1/fq_input_0" type="FakeQuantize" version="opset1">
			<data levels="256"/>
			<input>
				<port id="0">
					<dim>1</dim>
					<dim>128</dim>
					<dim>68</dim>
					<dim>124</dim>
				</port>
				<port id="1"/>
				<port id="2"/>
				<port id="3"/>
				<port id="4"/>
			</input>
			<output>
				<port id="5" precision="FP32">
					<dim>1</dim>
					<dim>128</dim>
					<dim>68</dim>
					<dim>124</dim>
				</port>
			</output>
		</layer>
		<layer id="329" name="266/Output_0/Data__const647_const" type="Const" version="opset1">
			<data element_type="f32" offset="286588" shape="128,64,1,1" size="32768"/>
			<output>
				<port id="1" precision="FP32">
					<dim>128</dim>
					<dim>64</dim>
					<dim>1</dim>
					<dim>1</dim>
				</port>
			</output>
		</layer>
		<layer id="330" name="29532957_const" type="Const" version="opset1">
			<data element_type="f32" offset="319356" shape="128,1,1,1" size="512"/>
			<output>
				<port id="1" precision="FP32">
					<dim>128</dim>
					<dim>1</dim>
					<dim>1</dim>
					<dim>1</dim>
				</port>
			</output>
		</layer>
		<layer id="331" name="29542958_const" type="Const" version="opset1">
			<data element_type="f32" offset="319868" shape="128,1,1,1" size="512"/>
			<output>
				<port id="1" precision="FP32">
					<dim>128</dim>
					<dim>1</dim>
					<dim>1</dim>
					<dim>1</dim>
				</port>
			</output>
		</layer>
		<layer id="332" name="29552959_const" type="Const" version="opset1">
			<data element_type="f32" offset="319356" shape="128,1,1,1" size="512"/>
			<output>
				<port id="1" precision="FP32">
					<dim>128</dim>
					<dim>1</dim>
					<dim>1</dim>
					<dim>1</dim>
				</port>
			</output>
		</layer>
		<layer id="333" name="29562960_const" type="Const" version="opset1">
			<data element_type="f32" offset="319868" shape="128,1,1,1" size="512"/>
			<output>
				<port id="1" precision="FP32">
					<dim>128</dim>
					<dim>1</dim>
					<dim>1</dim>
					<dim>1</dim>
				</port>
			</output>
		</layer>
		<layer id="334" name="conv3_1/proj/WithoutBiases/fq_weights_1" type="FakeQuantize" version="opset1">
			<data levels="255"/>
			<input>
				<port id="0">
					<dim>128</dim>
					<dim>64</dim>
					<dim>1</dim>
					<dim>1</dim>
				</port>
				<port id="1">
					<dim>128</dim>
					<dim>1</dim>
					<dim>1</dim>
					<dim>1</dim>
				</port>
				<port id="2">
					<dim>128</dim>
					<dim>1</dim>
					<dim>1</dim>
					<dim>1</dim>
				</port>
				<port id="3">
					<dim>128</dim>
					<dim>1</dim>
					<dim>1</dim>
					<dim>1</dim>
				</port>
				<port id="4">
					<dim>128</dim>
					<dim>1</dim>
					<dim>1</dim>
					<dim>1</dim>
				</port>
			</input>
			<output>
				<port id="5" precision="FP32">
					<dim>128</dim>
					<dim>64</dim>
					<dim>1</dim>
					<dim>1</dim>
				</port>
			</output>
		</layer>
		<layer id="335" name="conv3_1/proj/WithoutBiases" type="Convolution" version="opset1">
			<data dilations="1,1" output_padding="0,0" pads_begin="0,0" pads_end="0,0" strides="1,1"/>
			<input>
				<port id="0">
					<dim>1</dim>
					<dim>64</dim>
					<dim>68</dim>
					<dim>124</dim>
				</port>
				<port id="1">
					<dim>128</dim>
					<dim>64</dim>
					<dim>1</dim>
					<dim>1</dim>
				</port>
			</input>
			<output>
				<port id="2" precision="FP32">
					<dim>1</dim>
					<dim>128</dim>
					<dim>68</dim>
					<dim>124</dim>
				</port>
			</output>
		</layer>
		<layer id="336" name="conv3_1/proj/Dims4119/copy_const649_const" type="Const" version="opset1">
			<data element_type="f32" offset="320380" shape="1,128,1,1" size="512"/>
			<output>
				<port id="1" precision="FP32">
					<dim>1</dim>
					<dim>128</dim>
					<dim>1</dim>
					<dim>1</dim>
				</port>
			</output>
		</layer>
		<layer id="337" name="conv3_1/proj" type="Add" version="opset1">
			<input>
				<port id="0">
					<dim>1</dim>
					<dim>128</dim>
					<dim>68</dim>
					<dim>124</dim>
				</port>
				<port id="1">
					<dim>1</dim>
					<dim>128</dim>
					<dim>1</dim>
					<dim>1</dim>
				</port>
			</input>
			<output>
				<port id="2" precision="FP32">
					<dim>1</dim>
					<dim>128</dim>
					<dim>68</dim>
					<dim>124</dim>
				</port>
			</output>
		</layer>
		<layer id="338" name="29932997_const" type="Const" version="opset1">
			<data element_type="f32" offset="320892" shape="" size="4"/>
			<output>
				<port id="1" precision="FP32"/>
			</output>
		</layer>
		<layer id="339" name="29942998_const" type="Const" version="opset1">
			<data element_type="f32" offset="320896" shape="" size="4"/>
			<output>
				<port id="1" precision="FP32"/>
			</output>
		</layer>
		<layer id="340" name="29952999_const" type="Const" version="opset1">
			<data element_type="f32" offset="320892" shape="" size="4"/>
			<output>
				<port id="1" precision="FP32"/>
			</output>
		</layer>
		<layer id="341" name="29963000_const" type="Const" version="opset1">
			<data element_type="f32" offset="320896" shape="" size="4"/>
			<output>
				<port id="1" precision="FP32"/>
			</output>
		</layer>
		<layer id="342" name="conv3_1/fq_input_1" type="FakeQuantize" version="opset1">
			<data levels="256"/>
			<input>
				<port id="0">
					<dim>1</dim>
					<dim>128</dim>
					<dim>68</dim>
					<dim>124</dim>
				</port>
				<port id="1"/>
				<port id="2"/>
				<port id="3"/>
				<port id="4"/>
			</input>
			<output>
				<port id="5" precision="FP32">
					<dim>1</dim>
					<dim>128</dim>
					<dim>68</dim>
					<dim>124</dim>
				</port>
			</output>
		</layer>
		<layer id="343" name="conv3_1" type="Add" version="opset1">
			<input>
				<port id="0">
					<dim>1</dim>
					<dim>128</dim>
					<dim>68</dim>
					<dim>124</dim>
				</port>
				<port id="1">
					<dim>1</dim>
					<dim>128</dim>
					<dim>68</dim>
					<dim>124</dim>
				</port>
			</input>
			<output>
				<port id="2" precision="FP32">
					<dim>1</dim>
					<dim>128</dim>
					<dim>68</dim>
					<dim>124</dim>
				</port>
			</output>
		</layer>
		<layer id="344" name="36933697_const" type="Const" version="opset1">
			<data element_type="f32" offset="320900" shape="" size="4"/>
			<output>
				<port id="1" precision="FP32"/>
			</output>
		</layer>
		<layer id="345" name="36943698_const" type="Const" version="opset1">
			<data element_type="f32" offset="320904" shape="" size="4"/>
			<output>
				<port id="1" precision="FP32"/>
			</output>
		</layer>
		<layer id="346" name="36953699_const" type="Const" version="opset1">
			<data element_type="f32" offset="320900" shape="" size="4"/>
			<output>
				<port id="1" precision="FP32"/>
			</output>
		</layer>
		<layer id="347" name="36963700_const" type="Const" version="opset1">
			<data element_type="f32" offset="320904" shape="" size="4"/>
			<output>
				<port id="1" precision="FP32"/>
			</output>
		</layer>
		<layer id="348" name="conv3_2/1/conv/WithoutBiases/fq_input_0" type="FakeQuantize" version="opset1">
			<data levels="256"/>
			<input>
				<port id="0">
					<dim>1</dim>
					<dim>128</dim>
					<dim>68</dim>
					<dim>124</dim>
				</port>
				<port id="1"/>
				<port id="2"/>
				<port id="3"/>
				<port id="4"/>
			</input>
			<output>
				<port id="5" precision="FP32">
					<dim>1</dim>
					<dim>128</dim>
					<dim>68</dim>
					<dim>124</dim>
				</port>
			</output>
		</layer>
		<layer id="349" name="282/Output_0/Data__const652_const" type="Const" version="opset1">
			<data element_type="f32" offset="320908" shape="48,128,1,1" size="24576"/>
			<output>
				<port id="1" precision="FP32">
					<dim>48</dim>
					<dim>128</dim>
					<dim>1</dim>
					<dim>1</dim>
				</port>
			</output>
		</layer>
		<layer id="350" name="37033707_const" type="Const" version="opset1">
			<data element_type="f32" offset="345484" shape="48,1,1,1" size="192"/>
			<output>
				<port id="1" precision="FP32">
					<dim>48</dim>
					<dim>1</dim>
					<dim>1</dim>
					<dim>1</dim>
				</port>
			</output>
		</layer>
		<layer id="351" name="37043708_const" type="Const" version="opset1">
			<data element_type="f32" offset="345676" shape="48,1,1,1" size="192"/>
			<output>
				<port id="1" precision="FP32">
					<dim>48</dim>
					<dim>1</dim>
					<dim>1</dim>
					<dim>1</dim>
				</port>
			</output>
		</layer>
		<layer id="352" name="37053709_const" type="Const" version="opset1">
			<data element_type="f32" offset="345484" shape="48,1,1,1" size="192"/>
			<output>
				<port id="1" precision="FP32">
					<dim>48</dim>
					<dim>1</dim>
					<dim>1</dim>
					<dim>1</dim>
				</port>
			</output>
		</layer>
		<layer id="353" name="37063710_const" type="Const" version="opset1">
			<data element_type="f32" offset="345676" shape="48,1,1,1" size="192"/>
			<output>
				<port id="1" precision="FP32">
					<dim>48</dim>
					<dim>1</dim>
					<dim>1</dim>
					<dim>1</dim>
				</port>
			</output>
		</layer>
		<layer id="354" name="conv3_2/1/conv/WithoutBiases/fq_weights_1" type="FakeQuantize" version="opset1">
			<data levels="255"/>
			<input>
				<port id="0">
					<dim>48</dim>
					<dim>128</dim>
					<dim>1</dim>
					<dim>1</dim>
				</port>
				<port id="1">
					<dim>48</dim>
					<dim>1</dim>
					<dim>1</dim>
					<dim>1</dim>
				</port>
				<port id="2">
					<dim>48</dim>
					<dim>1</dim>
					<dim>1</dim>
					<dim>1</dim>
				</port>
				<port id="3">
					<dim>48</dim>
					<dim>1</dim>
					<dim>1</dim>
					<dim>1</dim>
				</port>
				<port id="4">
					<dim>48</dim>
					<dim>1</dim>
					<dim>1</dim>
					<dim>1</dim>
				</port>
			</input>
			<output>
				<port id="5" precision="FP32">
					<dim>48</dim>
					<dim>128</dim>
					<dim>1</dim>
					<dim>1</dim>
				</port>
			</output>
		</layer>
		<layer id="355" name="conv3_2/1/conv/WithoutBiases" type="Convolution" version="opset1">
			<data dilations="1,1" output_padding="0,0" pads_begin="0,0" pads_end="0,0" strides="1,1"/>
			<input>
				<port id="0">
					<dim>1</dim>
					<dim>128</dim>
					<dim>68</dim>
					<dim>124</dim>
				</port>
				<port id="1">
					<dim>48</dim>
					<dim>128</dim>
					<dim>1</dim>
					<dim>1</dim>
				</port>
			</input>
			<output>
				<port id="2" precision="FP32">
					<dim>1</dim>
					<dim>48</dim>
					<dim>68</dim>
					<dim>124</dim>
				</port>
			</output>
		</layer>
		<layer id="356" name="conv3_2/1/conv/Dims4131/copy_const654_const" type="Const" version="opset1">
			<data element_type="f32" offset="345868" shape="1,48,1,1" size="192"/>
			<output>
				<port id="1" precision="FP32">
					<dim>1</dim>
					<dim>48</dim>
					<dim>1</dim>
					<dim>1</dim>
				</port>
			</output>
		</layer>
		<layer id="357" name="conv3_2/1/conv" type="Add" version="opset1">
			<input>
				<port id="0">
					<dim>1</dim>
					<dim>48</dim>
					<dim>68</dim>
					<dim>124</dim>
				</port>
				<port id="1">
					<dim>1</dim>
					<dim>48</dim>
					<dim>1</dim>
					<dim>1</dim>
				</port>
			</input>
			<output>
				<port id="2" precision="FP32">
					<dim>1</dim>
					<dim>48</dim>
					<dim>68</dim>
					<dim>124</dim>
				</port>
			</output>
		</layer>
		<layer id="358" name="conv3_2/1/relu" type="ReLU" version="opset1">
			<input>
				<port id="0">
					<dim>1</dim>
					<dim>48</dim>
					<dim>68</dim>
					<dim>124</dim>
				</port>
			</input>
			<output>
				<port id="1" precision="FP32">
					<dim>1</dim>
					<dim>48</dim>
					<dim>68</dim>
					<dim>124</dim>
				</port>
			</output>
		</layer>
		<layer id="359" name="20532057_const" type="Const" version="opset1">
			<data element_type="f32" offset="10012" shape="" size="4"/>
			<output>
				<port id="1" precision="FP32"/>
			</output>
		</layer>
		<layer id="360" name="20542058_const" type="Const" version="opset1">
			<data element_type="f32" offset="346060" shape="" size="4"/>
			<output>
				<port id="1" precision="FP32"/>
			</output>
		</layer>
		<layer id="361" name="20552059_const" type="Const" version="opset1">
			<data element_type="f32" offset="10012" shape="" size="4"/>
			<output>
				<port id="1" precision="FP32"/>
			</output>
		</layer>
		<layer id="362" name="20562060_const" type="Const" version="opset1">
			<data element_type="f32" offset="346060" shape="" size="4"/>
			<output>
				<port id="1" precision="FP32"/>
			</output>
		</layer>
		<layer id="363" name="conv3_2/2/conv/WithoutBiases/fq_input_0" type="FakeQuantize" version="opset1">
			<data levels="256"/>
			<input>
				<port id="0">
					<dim>1</dim>
					<dim>48</dim>
					<dim>68</dim>
					<dim>124</dim>
				</port>
				<port id="1"/>
				<port id="2"/>
				<port id="3"/>
				<port id="4"/>
			</input>
			<output>
				<port id="5" precision="FP32">
					<dim>1</dim>
					<dim>48</dim>
					<dim>68</dim>
					<dim>124</dim>
				</port>
			</output>
		</layer>
		<layer id="364" name="421/Output_0/Data__const657_const" type="Const" version="opset1">
			<data element_type="f32" offset="346064" shape="48,48,3,3" size="82944"/>
			<output>
				<port id="1" precision="FP32">
					<dim>48</dim>
					<dim>48</dim>
					<dim>3</dim>
					<dim>3</dim>
				</port>
			</output>
		</layer>
		<layer id="365" name="20632067_const" type="Const" version="opset1">
			<data element_type="f32" offset="429008" shape="48,1,1,1" size="192"/>
			<output>
				<port id="1" precision="FP32">
					<dim>48</dim>
					<dim>1</dim>
					<dim>1</dim>
					<dim>1</dim>
				</port>
			</output>
		</layer>
		<layer id="366" name="20642068_const" type="Const" version="opset1">
			<data element_type="f32" offset="429200" shape="48,1,1,1" size="192"/>
			<output>
				<port id="1" precision="FP32">
					<dim>48</dim>
					<dim>1</dim>
					<dim>1</dim>
					<dim>1</dim>
				</port>
			</output>
		</layer>
		<layer id="367" name="20652069_const" type="Const" version="opset1">
			<data element_type="f32" offset="429008" shape="48,1,1,1" size="192"/>
			<output>
				<port id="1" precision="FP32">
					<dim>48</dim>
					<dim>1</dim>
					<dim>1</dim>
					<dim>1</dim>
				</port>
			</output>
		</layer>
		<layer id="368" name="20662070_const" type="Const" version="opset1">
			<data element_type="f32" offset="429200" shape="48,1,1,1" size="192"/>
			<output>
				<port id="1" precision="FP32">
					<dim>48</dim>
					<dim>1</dim>
					<dim>1</dim>
					<dim>1</dim>
				</port>
			</output>
		</layer>
		<layer id="369" name="conv3_2/2/conv/WithoutBiases/fq_weights_1" type="FakeQuantize" version="opset1">
			<data levels="255"/>
			<input>
				<port id="0">
					<dim>48</dim>
					<dim>48</dim>
					<dim>3</dim>
					<dim>3</dim>
				</port>
				<port id="1">
					<dim>48</dim>
					<dim>1</dim>
					<dim>1</dim>
					<dim>1</dim>
				</port>
				<port id="2">
					<dim>48</dim>
					<dim>1</dim>
					<dim>1</dim>
					<dim>1</dim>
				</port>
				<port id="3">
					<dim>48</dim>
					<dim>1</dim>
					<dim>1</dim>
					<dim>1</dim>
				</port>
				<port id="4">
					<dim>48</dim>
					<dim>1</dim>
					<dim>1</dim>
					<dim>1</dim>
				</port>
			</input>
			<output>
				<port id="5" precision="FP32">
					<dim>48</dim>
					<dim>48</dim>
					<dim>3</dim>
					<dim>3</dim>
				</port>
			</output>
		</layer>
		<layer id="370" name="conv3_2/2/conv/WithoutBiases" type="Convolution" version="opset1">
			<data dilations="1,1" output_padding="0,0" pads_begin="1,1" pads_end="1,1" strides="1,1"/>
			<input>
				<port id="0">
					<dim>1</dim>
					<dim>48</dim>
					<dim>68</dim>
					<dim>124</dim>
				</port>
				<port id="1">
					<dim>48</dim>
					<dim>48</dim>
					<dim>3</dim>
					<dim>3</dim>
				</port>
			</input>
			<output>
				<port id="2" precision="FP32">
					<dim>1</dim>
					<dim>48</dim>
					<dim>68</dim>
					<dim>124</dim>
				</port>
			</output>
		</layer>
		<layer id="371" name="conv3_2/2/conv/Dims4227/copy_const659_const" type="Const" version="opset1">
			<data element_type="f32" offset="429392" shape="1,48,1,1" size="192"/>
			<output>
				<port id="1" precision="FP32">
					<dim>1</dim>
					<dim>48</dim>
					<dim>1</dim>
					<dim>1</dim>
				</port>
			</output>
		</layer>
		<layer id="372" name="conv3_2/2/conv" type="Add" version="opset1">
			<input>
				<port id="0">
					<dim>1</dim>
					<dim>48</dim>
					<dim>68</dim>
					<dim>124</dim>
				</port>
				<port id="1">
					<dim>1</dim>
					<dim>48</dim>
					<dim>1</dim>
					<dim>1</dim>
				</port>
			</input>
			<output>
				<port id="2" precision="FP32">
					<dim>1</dim>
					<dim>48</dim>
					<dim>68</dim>
					<dim>124</dim>
				</port>
			</output>
		</layer>
		<layer id="373" name="50025006_const" type="Const" version="opset1">
			<data element_type="f32" offset="429584" shape="" size="4"/>
			<output>
				<port id="1" precision="FP32"/>
			</output>
		</layer>
		<layer id="374" name="50035007_const" type="Const" version="opset1">
			<data element_type="f32" offset="429588" shape="" size="4"/>
			<output>
				<port id="1" precision="FP32"/>
			</output>
		</layer>
		<layer id="375" name="50045008_const" type="Const" version="opset1">
			<data element_type="f32" offset="429584" shape="" size="4"/>
			<output>
				<port id="1" precision="FP32"/>
			</output>
		</layer>
		<layer id="376" name="50055009_const" type="Const" version="opset1">
			<data element_type="f32" offset="429588" shape="" size="4"/>
			<output>
				<port id="1" precision="FP32"/>
			</output>
		</layer>
		<layer id="377" name="conv3_2/2/concat/fq_input_0" type="FakeQuantize" version="opset1">
			<data levels="256"/>
			<input>
				<port id="0">
					<dim>1</dim>
					<dim>48</dim>
					<dim>68</dim>
					<dim>124</dim>
				</port>
				<port id="1"/>
				<port id="2"/>
				<port id="3"/>
				<port id="4"/>
			</input>
			<output>
				<port id="5" precision="FP32">
					<dim>1</dim>
					<dim>48</dim>
					<dim>68</dim>
					<dim>124</dim>
				</port>
			</output>
		</layer>
		<layer id="378" name="conv3_2/2/neg/mul_/Negate" type="Negative" version="opset1">
			<input>
				<port id="0">
					<dim>1</dim>
					<dim>48</dim>
					<dim>68</dim>
					<dim>124</dim>
				</port>
			</input>
			<output>
				<port id="1" precision="FP32">
					<dim>1</dim>
					<dim>48</dim>
					<dim>68</dim>
					<dim>124</dim>
				</port>
			</output>
		</layer>
		<layer id="379" name="50125016_const" type="Const" version="opset1">
			<data element_type="f32" offset="429584" shape="" size="4"/>
			<output>
				<port id="1" precision="FP32"/>
			</output>
		</layer>
		<layer id="380" name="50135017_const" type="Const" version="opset1">
			<data element_type="f32" offset="429588" shape="" size="4"/>
			<output>
				<port id="1" precision="FP32"/>
			</output>
		</layer>
		<layer id="381" name="50145018_const" type="Const" version="opset1">
			<data element_type="f32" offset="429584" shape="" size="4"/>
			<output>
				<port id="1" precision="FP32"/>
			</output>
		</layer>
		<layer id="382" name="50155019_const" type="Const" version="opset1">
			<data element_type="f32" offset="429588" shape="" size="4"/>
			<output>
				<port id="1" precision="FP32"/>
			</output>
		</layer>
		<layer id="383" name="conv3_2/2/concat/fq_input_1" type="FakeQuantize" version="opset1">
			<data levels="256"/>
			<input>
				<port id="0">
					<dim>1</dim>
					<dim>48</dim>
					<dim>68</dim>
					<dim>124</dim>
				</port>
				<port id="1"/>
				<port id="2"/>
				<port id="3"/>
				<port id="4"/>
			</input>
			<output>
				<port id="5" precision="FP32">
					<dim>1</dim>
					<dim>48</dim>
					<dim>68</dim>
					<dim>124</dim>
				</port>
			</output>
		</layer>
		<layer id="384" name="conv3_2/2/concat" type="Concat" version="opset1">
			<data axis="1"/>
			<input>
				<port id="0">
					<dim>1</dim>
					<dim>48</dim>
					<dim>68</dim>
					<dim>124</dim>
				</port>
				<port id="1">
					<dim>1</dim>
					<dim>48</dim>
					<dim>68</dim>
					<dim>124</dim>
				</port>
			</input>
			<output>
				<port id="2" precision="FP32">
					<dim>1</dim>
					<dim>96</dim>
					<dim>68</dim>
					<dim>124</dim>
				</port>
			</output>
		</layer>
		<layer id="385" name="390/Output_0/Data_/copy_const663_const" type="Const" version="opset1">
			<data element_type="f32" offset="429592" shape="1,96,1,1" size="384"/>
			<output>
				<port id="1" precision="FP32">
					<dim>1</dim>
					<dim>96</dim>
					<dim>1</dim>
					<dim>1</dim>
				</port>
			</output>
		</layer>
		<layer id="386" name="conv3_2/2/scale/Mul_" type="Multiply" version="opset1">
			<input>
				<port id="0">
					<dim>1</dim>
					<dim>96</dim>
					<dim>68</dim>
					<dim>124</dim>
				</port>
				<port id="1">
					<dim>1</dim>
					<dim>96</dim>
					<dim>1</dim>
					<dim>1</dim>
				</port>
			</input>
			<output>
				<port id="2" precision="FP32">
					<dim>1</dim>
					<dim>96</dim>
					<dim>68</dim>
					<dim>124</dim>
				</port>
			</output>
		</layer>
		<layer id="387" name="391/Output_0/Data_/copy_const665_const" type="Const" version="opset1">
			<data element_type="f32" offset="429976" shape="1,96,1,1" size="384"/>
			<output>
				<port id="1" precision="FP32">
					<dim>1</dim>
					<dim>96</dim>
					<dim>1</dim>
					<dim>1</dim>
				</port>
			</output>
		</layer>
		<layer id="388" name="conv3_2/2/scale/Add_" type="Add" version="opset1">
			<input>
				<port id="0">
					<dim>1</dim>
					<dim>96</dim>
					<dim>68</dim>
					<dim>124</dim>
				</port>
				<port id="1">
					<dim>1</dim>
					<dim>96</dim>
					<dim>1</dim>
					<dim>1</dim>
				</port>
			</input>
			<output>
				<port id="2" precision="FP32">
					<dim>1</dim>
					<dim>96</dim>
					<dim>68</dim>
					<dim>124</dim>
				</port>
			</output>
		</layer>
		<layer id="389" name="conv3_2/2/relu" type="ReLU" version="opset1">
			<input>
				<port id="0">
					<dim>1</dim>
					<dim>96</dim>
					<dim>68</dim>
					<dim>124</dim>
				</port>
			</input>
			<output>
				<port id="1" precision="FP32">
					<dim>1</dim>
					<dim>96</dim>
					<dim>68</dim>
					<dim>124</dim>
				</port>
			</output>
		</layer>
		<layer id="390" name="27632767_const" type="Const" version="opset1">
			<data element_type="f32" offset="10012" shape="" size="4"/>
			<output>
				<port id="1" precision="FP32"/>
			</output>
		</layer>
		<layer id="391" name="27642768_const" type="Const" version="opset1">
			<data element_type="f32" offset="430360" shape="" size="4"/>
			<output>
				<port id="1" precision="FP32"/>
			</output>
		</layer>
		<layer id="392" name="27652769_const" type="Const" version="opset1">
			<data element_type="f32" offset="10012" shape="" size="4"/>
			<output>
				<port id="1" precision="FP32"/>
			</output>
		</layer>
		<layer id="393" name="27662770_const" type="Const" version="opset1">
			<data element_type="f32" offset="430360" shape="" size="4"/>
			<output>
				<port id="1" precision="FP32"/>
			</output>
		</layer>
		<layer id="394" name="conv3_2/3/conv/WithoutBiases/fq_input_0" type="FakeQuantize" version="opset1">
			<data levels="256"/>
			<input>
				<port id="0">
					<dim>1</dim>
					<dim>96</dim>
					<dim>68</dim>
					<dim>124</dim>
				</port>
				<port id="1"/>
				<port id="2"/>
				<port id="3"/>
				<port id="4"/>
			</input>
			<output>
				<port id="5" precision="FP32">
					<dim>1</dim>
					<dim>96</dim>
					<dim>68</dim>
					<dim>124</dim>
				</port>
			</output>
		</layer>
		<layer id="395" name="290/Output_0/Data__const668_const" type="Const" version="opset1">
			<data element_type="f32" offset="430364" shape="128,96,1,1" size="49152"/>
			<output>
				<port id="1" precision="FP32">
					<dim>128</dim>
					<dim>96</dim>
					<dim>1</dim>
					<dim>1</dim>
				</port>
			</output>
		</layer>
		<layer id="396" name="27732777_const" type="Const" version="opset1">
			<data element_type="f32" offset="479516" shape="128,1,1,1" size="512"/>
			<output>
				<port id="1" precision="FP32">
					<dim>128</dim>
					<dim>1</dim>
					<dim>1</dim>
					<dim>1</dim>
				</port>
			</output>
		</layer>
		<layer id="397" name="27742778_const" type="Const" version="opset1">
			<data element_type="f32" offset="480028" shape="128,1,1,1" size="512"/>
			<output>
				<port id="1" precision="FP32">
					<dim>128</dim>
					<dim>1</dim>
					<dim>1</dim>
					<dim>1</dim>
				</port>
			</output>
		</layer>
		<layer id="398" name="27752779_const" type="Const" version="opset1">
			<data element_type="f32" offset="479516" shape="128,1,1,1" size="512"/>
			<output>
				<port id="1" precision="FP32">
					<dim>128</dim>
					<dim>1</dim>
					<dim>1</dim>
					<dim>1</dim>
				</port>
			</output>
		</layer>
		<layer id="399" name="27762780_const" type="Const" version="opset1">
			<data element_type="f32" offset="480028" shape="128,1,1,1" size="512"/>
			<output>
				<port id="1" precision="FP32">
					<dim>128</dim>
					<dim>1</dim>
					<dim>1</dim>
					<dim>1</dim>
				</port>
			</output>
		</layer>
		<layer id="400" name="conv3_2/3/conv/WithoutBiases/fq_weights_1" type="FakeQuantize" version="opset1">
			<data levels="255"/>
			<input>
				<port id="0">
					<dim>128</dim>
					<dim>96</dim>
					<dim>1</dim>
					<dim>1</dim>
				</port>
				<port id="1">
					<dim>128</dim>
					<dim>1</dim>
					<dim>1</dim>
					<dim>1</dim>
				</port>
				<port id="2">
					<dim>128</dim>
					<dim>1</dim>
					<dim>1</dim>
					<dim>1</dim>
				</port>
				<port id="3">
					<dim>128</dim>
					<dim>1</dim>
					<dim>1</dim>
					<dim>1</dim>
				</port>
				<port id="4">
					<dim>128</dim>
					<dim>1</dim>
					<dim>1</dim>
					<dim>1</dim>
				</port>
			</input>
			<output>
				<port id="5" precision="FP32">
					<dim>128</dim>
					<dim>96</dim>
					<dim>1</dim>
					<dim>1</dim>
				</port>
			</output>
		</layer>
		<layer id="401" name="conv3_2/3/conv/WithoutBiases" type="Convolution" version="opset1">
			<data dilations="1,1" output_padding="0,0" pads_begin="0,0" pads_end="0,0" strides="1,1"/>
			<input>
				<port id="0">
					<dim>1</dim>
					<dim>96</dim>
					<dim>68</dim>
					<dim>124</dim>
				</port>
				<port id="1">
					<dim>128</dim>
					<dim>96</dim>
					<dim>1</dim>
					<dim>1</dim>
				</port>
			</input>
			<output>
				<port id="2" precision="FP32">
					<dim>1</dim>
					<dim>128</dim>
					<dim>68</dim>
					<dim>124</dim>
				</port>
			</output>
		</layer>
		<layer id="402" name="conv3_2/3/conv/Dims4413/copy_const670_const" type="Const" version="opset1">
			<data element_type="f32" offset="480540" shape="1,128,1,1" size="512"/>
			<output>
				<port id="1" precision="FP32">
					<dim>1</dim>
					<dim>128</dim>
					<dim>1</dim>
					<dim>1</dim>
				</port>
			</output>
		</layer>
		<layer id="403" name="conv3_2/3/conv" type="Add" version="opset1">
			<input>
				<port id="0">
					<dim>1</dim>
					<dim>128</dim>
					<dim>68</dim>
					<dim>124</dim>
				</port>
				<port id="1">
					<dim>1</dim>
					<dim>128</dim>
					<dim>1</dim>
					<dim>1</dim>
				</port>
			</input>
			<output>
				<port id="2" precision="FP32">
					<dim>1</dim>
					<dim>128</dim>
					<dim>68</dim>
					<dim>124</dim>
				</port>
			</output>
		</layer>
		<layer id="404" name="30933097_const" type="Const" version="opset1">
			<data element_type="f32" offset="481052" shape="" size="4"/>
			<output>
				<port id="1" precision="FP32"/>
			</output>
		</layer>
		<layer id="405" name="30943098_const" type="Const" version="opset1">
			<data element_type="f32" offset="481056" shape="" size="4"/>
			<output>
				<port id="1" precision="FP32"/>
			</output>
		</layer>
		<layer id="406" name="30953099_const" type="Const" version="opset1">
			<data element_type="f32" offset="481052" shape="" size="4"/>
			<output>
				<port id="1" precision="FP32"/>
			</output>
		</layer>
		<layer id="407" name="30963100_const" type="Const" version="opset1">
			<data element_type="f32" offset="481056" shape="" size="4"/>
			<output>
				<port id="1" precision="FP32"/>
			</output>
		</layer>
		<layer id="408" name="conv3_2/fq_input_0" type="FakeQuantize" version="opset1">
			<data levels="256"/>
			<input>
				<port id="0">
					<dim>1</dim>
					<dim>128</dim>
					<dim>68</dim>
					<dim>124</dim>
				</port>
				<port id="1"/>
				<port id="2"/>
				<port id="3"/>
				<port id="4"/>
			</input>
			<output>
				<port id="5" precision="FP32">
					<dim>1</dim>
					<dim>128</dim>
					<dim>68</dim>
					<dim>124</dim>
				</port>
			</output>
		</layer>
		<layer id="409" name="conv3_2" type="Add" version="opset1">
			<input>
				<port id="0">
					<dim>1</dim>
					<dim>128</dim>
					<dim>68</dim>
					<dim>124</dim>
				</port>
				<port id="1">
					<dim>1</dim>
					<dim>128</dim>
					<dim>68</dim>
					<dim>124</dim>
				</port>
			</input>
			<output>
				<port id="2" precision="FP32">
					<dim>1</dim>
					<dim>128</dim>
					<dim>68</dim>
					<dim>124</dim>
				</port>
			</output>
		</layer>
		<layer id="410" name="15831587_const" type="Const" version="opset1">
			<data element_type="f32" offset="481060" shape="" size="4"/>
			<output>
				<port id="1" precision="FP32"/>
			</output>
		</layer>
		<layer id="411" name="15841588_const" type="Const" version="opset1">
			<data element_type="f32" offset="481064" shape="" size="4"/>
			<output>
				<port id="1" precision="FP32"/>
			</output>
		</layer>
		<layer id="412" name="15851589_const" type="Const" version="opset1">
			<data element_type="f32" offset="481060" shape="" size="4"/>
			<output>
				<port id="1" precision="FP32"/>
			</output>
		</layer>
		<layer id="413" name="15861590_const" type="Const" version="opset1">
			<data element_type="f32" offset="481064" shape="" size="4"/>
			<output>
				<port id="1" precision="FP32"/>
			</output>
		</layer>
		<layer id="414" name="conv3_3/1/conv/WithoutBiases/fq_input_0" type="FakeQuantize" version="opset1">
			<data levels="256"/>
			<input>
				<port id="0">
					<dim>1</dim>
					<dim>128</dim>
					<dim>68</dim>
					<dim>124</dim>
				</port>
				<port id="1"/>
				<port id="2"/>
				<port id="3"/>
				<port id="4"/>
			</input>
			<output>
				<port id="5" precision="FP32">
					<dim>1</dim>
					<dim>128</dim>
					<dim>68</dim>
					<dim>124</dim>
				</port>
			</output>
		</layer>
		<layer id="415" name="411/Output_0/Data__const673_const" type="Const" version="opset1">
			<data element_type="f32" offset="481068" shape="48,128,1,1" size="24576"/>
			<output>
				<port id="1" precision="FP32">
					<dim>48</dim>
					<dim>128</dim>
					<dim>1</dim>
					<dim>1</dim>
				</port>
			</output>
		</layer>
		<layer id="416" name="15931597_const" type="Const" version="opset1">
			<data element_type="f32" offset="505644" shape="48,1,1,1" size="192"/>
			<output>
				<port id="1" precision="FP32">
					<dim>48</dim>
					<dim>1</dim>
					<dim>1</dim>
					<dim>1</dim>
				</port>
			</output>
		</layer>
		<layer id="417" name="15941598_const" type="Const" version="opset1">
			<data element_type="f32" offset="505836" shape="48,1,1,1" size="192"/>
			<output>
				<port id="1" precision="FP32">
					<dim>48</dim>
					<dim>1</dim>
					<dim>1</dim>
					<dim>1</dim>
				</port>
			</output>
		</layer>
		<layer id="418" name="15951599_const" type="Const" version="opset1">
			<data element_type="f32" offset="505644" shape="48,1,1,1" size="192"/>
			<output>
				<port id="1" precision="FP32">
					<dim>48</dim>
					<dim>1</dim>
					<dim>1</dim>
					<dim>1</dim>
				</port>
			</output>
		</layer>
		<layer id="419" name="15961600_const" type="Const" version="opset1">
			<data element_type="f32" offset="505836" shape="48,1,1,1" size="192"/>
			<output>
				<port id="1" precision="FP32">
					<dim>48</dim>
					<dim>1</dim>
					<dim>1</dim>
					<dim>1</dim>
				</port>
			</output>
		</layer>
		<layer id="420" name="conv3_3/1/conv/WithoutBiases/fq_weights_1" type="FakeQuantize" version="opset1">
			<data levels="255"/>
			<input>
				<port id="0">
					<dim>48</dim>
					<dim>128</dim>
					<dim>1</dim>
					<dim>1</dim>
				</port>
				<port id="1">
					<dim>48</dim>
					<dim>1</dim>
					<dim>1</dim>
					<dim>1</dim>
				</port>
				<port id="2">
					<dim>48</dim>
					<dim>1</dim>
					<dim>1</dim>
					<dim>1</dim>
				</port>
				<port id="3">
					<dim>48</dim>
					<dim>1</dim>
					<dim>1</dim>
					<dim>1</dim>
				</port>
				<port id="4">
					<dim>48</dim>
					<dim>1</dim>
					<dim>1</dim>
					<dim>1</dim>
				</port>
			</input>
			<output>
				<port id="5" precision="FP32">
					<dim>48</dim>
					<dim>128</dim>
					<dim>1</dim>
					<dim>1</dim>
				</port>
			</output>
		</layer>
		<layer id="421" name="conv3_3/1/conv/WithoutBiases" type="Convolution" version="opset1">
			<data dilations="1,1" output_padding="0,0" pads_begin="0,0" pads_end="0,0" strides="1,1"/>
			<input>
				<port id="0">
					<dim>1</dim>
					<dim>128</dim>
					<dim>68</dim>
					<dim>124</dim>
				</port>
				<port id="1">
					<dim>48</dim>
					<dim>128</dim>
					<dim>1</dim>
					<dim>1</dim>
				</port>
			</input>
			<output>
				<port id="2" precision="FP32">
					<dim>1</dim>
					<dim>48</dim>
					<dim>68</dim>
					<dim>124</dim>
				</port>
			</output>
		</layer>
		<layer id="422" name="conv3_3/1/conv/Dims4221/copy_const675_const" type="Const" version="opset1">
			<data element_type="f32" offset="506028" shape="1,48,1,1" size="192"/>
			<output>
				<port id="1" precision="FP32">
					<dim>1</dim>
					<dim>48</dim>
					<dim>1</dim>
					<dim>1</dim>
				</port>
			</output>
		</layer>
		<layer id="423" name="conv3_3/1/conv" type="Add" version="opset1">
			<input>
				<port id="0">
					<dim>1</dim>
					<dim>48</dim>
					<dim>68</dim>
					<dim>124</dim>
				</port>
				<port id="1">
					<dim>1</dim>
					<dim>48</dim>
					<dim>1</dim>
					<dim>1</dim>
				</port>
			</input>
			<output>
				<port id="2" precision="FP32">
					<dim>1</dim>
					<dim>48</dim>
					<dim>68</dim>
					<dim>124</dim>
				</port>
			</output>
		</layer>
		<layer id="424" name="conv3_3/1/relu" type="ReLU" version="opset1">
			<input>
				<port id="0">
					<dim>1</dim>
					<dim>48</dim>
					<dim>68</dim>
					<dim>124</dim>
				</port>
			</input>
			<output>
				<port id="1" precision="FP32">
					<dim>1</dim>
					<dim>48</dim>
					<dim>68</dim>
					<dim>124</dim>
				</port>
			</output>
		</layer>
		<layer id="425" name="37133717_const" type="Const" version="opset1">
			<data element_type="f32" offset="10012" shape="" size="4"/>
			<output>
				<port id="1" precision="FP32"/>
			</output>
		</layer>
		<layer id="426" name="37143718_const" type="Const" version="opset1">
			<data element_type="f32" offset="506220" shape="" size="4"/>
			<output>
				<port id="1" precision="FP32"/>
			</output>
		</layer>
		<layer id="427" name="37153719_const" type="Const" version="opset1">
			<data element_type="f32" offset="10012" shape="" size="4"/>
			<output>
				<port id="1" precision="FP32"/>
			</output>
		</layer>
		<layer id="428" name="37163720_const" type="Const" version="opset1">
			<data element_type="f32" offset="506220" shape="" size="4"/>
			<output>
				<port id="1" precision="FP32"/>
			</output>
		</layer>
		<layer id="429" name="conv3_3/2/conv/WithoutBiases/fq_input_0" type="FakeQuantize" version="opset1">
			<data levels="256"/>
			<input>
				<port id="0">
					<dim>1</dim>
					<dim>48</dim>
					<dim>68</dim>
					<dim>124</dim>
				</port>
				<port id="1"/>
				<port id="2"/>
				<port id="3"/>
				<port id="4"/>
			</input>
			<output>
				<port id="5" precision="FP32">
					<dim>1</dim>
					<dim>48</dim>
					<dim>68</dim>
					<dim>124</dim>
				</port>
			</output>
		</layer>
		<layer id="430" name="356/Output_0/Data__const678_const" type="Const" version="opset1">
			<data element_type="f32" offset="506224" shape="48,48,3,3" size="82944"/>
			<output>
				<port id="1" precision="FP32">
					<dim>48</dim>
					<dim>48</dim>
					<dim>3</dim>
					<dim>3</dim>
				</port>
			</output>
		</layer>
		<layer id="431" name="37233727_const" type="Const" version="opset1">
			<data element_type="f32" offset="589168" shape="48,1,1,1" size="192"/>
			<output>
				<port id="1" precision="FP32">
					<dim>48</dim>
					<dim>1</dim>
					<dim>1</dim>
					<dim>1</dim>
				</port>
			</output>
		</layer>
		<layer id="432" name="37243728_const" type="Const" version="opset1">
			<data element_type="f32" offset="589360" shape="48,1,1,1" size="192"/>
			<output>
				<port id="1" precision="FP32">
					<dim>48</dim>
					<dim>1</dim>
					<dim>1</dim>
					<dim>1</dim>
				</port>
			</output>
		</layer>
		<layer id="433" name="37253729_const" type="Const" version="opset1">
			<data element_type="f32" offset="589168" shape="48,1,1,1" size="192"/>
			<output>
				<port id="1" precision="FP32">
					<dim>48</dim>
					<dim>1</dim>
					<dim>1</dim>
					<dim>1</dim>
				</port>
			</output>
		</layer>
		<layer id="434" name="37263730_const" type="Const" version="opset1">
			<data element_type="f32" offset="589360" shape="48,1,1,1" size="192"/>
			<output>
				<port id="1" precision="FP32">
					<dim>48</dim>
					<dim>1</dim>
					<dim>1</dim>
					<dim>1</dim>
				</port>
			</output>
		</layer>
		<layer id="435" name="conv3_3/2/conv/WithoutBiases/fq_weights_1" type="FakeQuantize" version="opset1">
			<data levels="255"/>
			<input>
				<port id="0">
					<dim>48</dim>
					<dim>48</dim>
					<dim>3</dim>
					<dim>3</dim>
				</port>
				<port id="1">
					<dim>48</dim>
					<dim>1</dim>
					<dim>1</dim>
					<dim>1</dim>
				</port>
				<port id="2">
					<dim>48</dim>
					<dim>1</dim>
					<dim>1</dim>
					<dim>1</dim>
				</port>
				<port id="3">
					<dim>48</dim>
…
		<edge from-layer="960" from-port="1" to-layer="961" to-port="4"/>
		<edge from-layer="910" from-port="5" to-layer="962" to-port="0"/>
		<edge from-layer="961" from-port="5" to-layer="962" to-port="1"/>
		<edge from-layer="962" from-port="2" to-layer="964" to-port="0"/>
		<edge from-layer="963" from-port="1" to-layer="964" to-port="1"/>
		<edge from-layer="964" from-port="2" to-layer="965" to-port="0"/>
		<edge from-layer="965" from-port="1" to-layer="970" to-port="0"/>
		<edge from-layer="966" from-port="1" to-layer="970" to-port="1"/>
		<edge from-layer="967" from-port="1" to-layer="970" to-port="2"/>
		<edge from-layer="968" from-port="1" to-layer="970" to-port="3"/>
		<edge from-layer="969" from-port="1" to-layer="970" to-port="4"/>
		<edge from-layer="971" from-port="1" to-layer="976" to-port="0"/>
		<edge from-layer="972" from-port="1" to-layer="976" to-port="1"/>
		<edge from-layer="973" from-port="1" to-layer="976" to-port="2"/>
		<edge from-layer="974" from-port="1" to-layer="976" to-port="3"/>
		<edge from-layer="975" from-port="1" to-layer="976" to-port="4"/>
		<edge from-layer="970" from-port="5" to-layer="977" to-port="0"/>
		<edge from-layer="976" from-port="5" to-layer="977" to-port="1"/>
		<edge from-layer="977" from-port="2" to-layer="979" to-port="0"/>
		<edge from-layer="978" from-port="1" to-layer="979" to-port="1"/>
		<edge from-layer="979" from-port="2" to-layer="980" to-port="0"/>
		<edge from-layer="980" from-port="1" to-layer="985" to-port="0"/>
		<edge from-layer="981" from-port="1" to-layer="985" to-port="1"/>
		<edge from-layer="982" from-port="1" to-layer="985" to-port="2"/>
		<edge from-layer="983" from-port="1" to-layer="985" to-port="3"/>
		<edge from-layer="984" from-port="1" to-layer="985" to-port="4"/>
		<edge from-layer="986" from-port="1" to-layer="991" to-port="0"/>
		<edge from-layer="987" from-port="1" to-layer="991" to-port="1"/>
		<edge from-layer="988" from-port="1" to-layer="991" to-port="2"/>
		<edge from-layer="989" from-port="1" to-layer="991" to-port="3"/>
		<edge from-layer="990" from-port="1" to-layer="991" to-port="4"/>
		<edge from-layer="985" from-port="5" to-layer="992" to-port="0"/>
		<edge from-layer="991" from-port="5" to-layer="992" to-port="1"/>
		<edge from-layer="992" from-port="2" to-layer="994" to-port="0"/>
		<edge from-layer="993" from-port="1" to-layer="994" to-port="1"/>
		<edge from-layer="994" from-port="2" to-layer="995" to-port="0"/>
		<edge from-layer="995" from-port="1" to-layer="1000" to-port="0"/>
		<edge from-layer="996" from-port="1" to-layer="1000" to-port="1"/>
		<edge from-layer="997" from-port="1" to-layer="1000" to-port="2"/>
		<edge from-layer="998" from-port="1" to-layer="1000" to-port="3"/>
		<edge from-layer="999" from-port="1" to-layer="1000" to-port="4"/>
		<edge from-layer="925" from-port="5" to-layer="1001" to-port="0"/>
		<edge from-layer="955" from-port="5" to-layer="1001" to-port="1"/>
		<edge from-layer="1000" from-port="5" to-layer="1001" to-port="2"/>
		<edge from-layer="1002" from-port="1" to-layer="1007" to-port="0"/>
		<edge from-layer="1003" from-port="1" to-layer="1007" to-port="1"/>
		<edge from-layer="1004" from-port="1" to-layer="1007" to-port="2"/>
		<edge from-layer="1005" from-port="1" to-layer="1007" to-port="3"/>
		<edge from-layer="1006" from-port="1" to-layer="1007" to-port="4"/>
		<edge from-layer="1001" from-port="3" to-layer="1008" to-port="0"/>
		<edge from-layer="1007" from-port="5" to-layer="1008" to-port="1"/>
		<edge from-layer="1008" from-port="2" to-layer="1010" to-port="0"/>
		<edge from-layer="1009" from-port="1" to-layer="1010" to-port="1"/>
		<edge from-layer="1010" from-port="2" to-layer="1015" to-port="0"/>
		<edge from-layer="1011" from-port="1" to-layer="1015" to-port="1"/>
		<edge from-layer="1012" from-port="1" to-layer="1015" to-port="2"/>
		<edge from-layer="1013" from-port="1" to-layer="1015" to-port="3"/>
		<edge from-layer="1014" from-port="1" to-layer="1015" to-port="4"/>
		<edge from-layer="1015" from-port="5" to-layer="1016" to-port="0"/>
		<edge from-layer="910" from-port="5" to-layer="1016" to-port="1"/>
		<edge from-layer="1016" from-port="2" to-layer="1021" to-port="0"/>
		<edge from-layer="1017" from-port="1" to-layer="1021" to-port="1"/>
		<edge from-layer="1018" from-port="1" to-layer="1021" to-port="2"/>
		<edge from-layer="1019" from-port="1" to-layer="1021" to-port="3"/>
		<edge from-layer="1020" from-port="1" to-layer="1021" to-port="4"/>
		<edge from-layer="1022" from-port="1" to-layer="1027" to-port="0"/>
		<edge from-layer="1023" from-port="1" to-layer="1027" to-port="1"/>
		<edge from-layer="1024" from-port="1" to-layer="1027" to-port="2"/>
		<edge from-layer="1025" from-port="1" to-layer="1027" to-port="3"/>
		<edge from-layer="1026" from-port="1" to-layer="1027" to-port="4"/>
		<edge from-layer="1021" from-port="5" to-layer="1028" to-port="0"/>
		<edge from-layer="1027" from-port="5" to-layer="1028" to-port="1"/>
		<edge from-layer="1028" from-port="2" to-layer="1030" to-port="0"/>
		<edge from-layer="1029" from-port="1" to-layer="1030" to-port="1"/>
		<edge from-layer="1030" from-port="2" to-layer="1031" to-port="0"/>
		<edge from-layer="1031" from-port="1" to-layer="1036" to-port="0"/>
		<edge from-layer="1032" from-port="1" to-layer="1036" to-port="1"/>
		<edge from-layer="1033" from-port="1" to-layer="1036" to-port="2"/>
		<edge from-layer="1034" from-port="1" to-layer="1036" to-port="3"/>
		<edge from-layer="1035" from-port="1" to-layer="1036" to-port="4"/>
		<edge from-layer="1037" from-port="1" to-layer="1042" to-port="0"/>
		<edge from-layer="1038" from-port="1" to-layer="1042" to-port="1"/>
		<edge from-layer="1039" from-port="1" to-layer="1042" to-port="2"/>
		<edge from-layer="1040" from-port="1" to-layer="1042" to-port="3"/>
		<edge from-layer="1041" from-port="1" to-layer="1042" to-port="4"/>
		<edge from-layer="1021" from-port="5" to-layer="1043" to-port="0"/>
		<edge from-layer="1042" from-port="5" to-layer="1043" to-port="1"/>
		<edge from-layer="1043" from-port="2" to-layer="1045" to-port="0"/>
		<edge from-layer="1044" from-port="1" to-layer="1045" to-port="1"/>
		<edge from-layer="1045" from-port="2" to-layer="1046" to-port="0"/>
		<edge from-layer="1046" from-port="1" to-layer="1051" to-port="0"/>
		<edge from-layer="1047" from-port="1" to-layer="1051" to-port="1"/>
		<edge from-layer="1048" from-port="1" to-layer="1051" to-port="2"/>
		<edge from-layer="1049" from-port="1" to-layer="1051" to-port="3"/>
		<edge from-layer="1050" from-port="1" to-layer="1051" to-port="4"/>
		<edge from-layer="1052" from-port="1" to-layer="1057" to-port="0"/>
		<edge from-layer="1053" from-port="1" to-layer="1057" to-port="1"/>
		<edge from-layer="1054" from-port="1" to-layer="1057" to-port="2"/>
		<edge from-layer="1055" from-port="1" to-layer="1057" to-port="3"/>
		<edge from-layer="1056" from-port="1" to-layer="1057" to-port="4"/>
		<edge from-layer="1051" from-port="5" to-layer="1058" to-port="0"/>
		<edge from-layer="1057" from-port="5" to-layer="1058" to-port="1"/>
		<edge from-layer="1058" from-port="2" to-layer="1060" to-port="0"/>
		<edge from-layer="1059" from-port="1" to-layer="1060" to-port="1"/>
		<edge from-layer="1060" from-port="2" to-layer="1061" to-port="0"/>
		<edge from-layer="1061" from-port="1" to-layer="1066" to-port="0"/>
		<edge from-layer="1062" from-port="1" to-layer="1066" to-port="1"/>
		<edge from-layer="1063" from-port="1" to-layer="1066" to-port="2"/>
		<edge from-layer="1064" from-port="1" to-layer="1066" to-port="3"/>
		<edge from-layer="1065" from-port="1" to-layer="1066" to-port="4"/>
		<edge from-layer="1067" from-port="1" to-layer="1072" to-port="0"/>
		<edge from-layer="1068" from-port="1" to-layer="1072" to-port="1"/>
		<edge from-layer="1069" from-port="1" to-layer="1072" to-port="2"/>
		<edge from-layer="1070" from-port="1" to-layer="1072" to-port="3"/>
		<edge from-layer="1071" from-port="1" to-layer="1072" to-port="4"/>
		<edge from-layer="1021" from-port="5" to-layer="1073" to-port="0"/>
		<edge from-layer="1072" from-port="5" to-layer="1073" to-port="1"/>
		<edge from-layer="1073" from-port="2" to-layer="1075" to-port="0"/>
		<edge from-layer="1074" from-port="1" to-layer="1075" to-port="1"/>
		<edge from-layer="1075" from-port="2" to-layer="1076" to-port="0"/>
		<edge from-layer="1076" from-port="1" to-layer="1081" to-port="0"/>
		<edge from-layer="1077" from-port="1" to-layer="1081" to-port="1"/>
		<edge from-layer="1078" from-port="1" to-layer="1081" to-port="2"/>
		<edge from-layer="1079" from-port="1" to-layer="1081" to-port="3"/>
		<edge from-layer="1080" from-port="1" to-layer="1081" to-port="4"/>
		<edge from-layer="1082" from-port="1" to-layer="1087" to-port="0"/>
		<edge from-layer="1083" from-port="1" to-layer="1087" to-port="1"/>
		<edge from-layer="1084" from-port="1" to-layer="1087" to-port="2"/>
		<edge from-layer="1085" from-port="1" to-layer="1087" to-port="3"/>
		<edge from-layer="1086" from-port="1" to-layer="1087" to-port="4"/>
		<edge from-layer="1081" from-port="5" to-layer="1088" to-port="0"/>
		<edge from-layer="1087" from-port="5" to-layer="1088" to-port="1"/>
		<edge from-layer="1088" from-port="2" to-layer="1090" to-port="0"/>
		<edge from-layer="1089" from-port="1" to-layer="1090" to-port="1"/>
		<edge from-layer="1090" from-port="2" to-layer="1091" to-port="0"/>
		<edge from-layer="1091" from-port="1" to-layer="1096" to-port="0"/>
		<edge from-layer="1092" from-port="1" to-layer="1096" to-port="1"/>
		<edge from-layer="1093" from-port="1" to-layer="1096" to-port="2"/>
		<edge from-layer="1094" from-port="1" to-layer="1096" to-port="3"/>
		<edge from-layer="1095" from-port="1" to-layer="1096" to-port="4"/>
		<edge from-layer="1097" from-port="1" to-layer="1102" to-port="0"/>
		<edge from-layer="1098" from-port="1" to-layer="1102" to-port="1"/>
		<edge from-layer="1099" from-port="1" to-layer="1102" to-port="2"/>
		<edge from-layer="1100" from-port="1" to-layer="1102" to-port="3"/>
		<edge from-layer="1101" from-port="1" to-layer="1102" to-port="4"/>
		<edge from-layer="1096" from-port="5" to-layer="1103" to-port="0"/>
		<edge from-layer="1102" from-port="5" to-layer="1103" to-port="1"/>
		<edge from-layer="1103" from-port="2" to-layer="1105" to-port="0"/>
		<edge from-layer="1104" from-port="1" to-layer="1105" to-port="1"/>
		<edge from-layer="1105" from-port="2" to-layer="1106" to-port="0"/>
		<edge from-layer="1106" from-port="1" to-layer="1111" to-port="0"/>
		<edge from-layer="1107" from-port="1" to-layer="1111" to-port="1"/>
		<edge from-layer="1108" from-port="1" to-layer="1111" to-port="2"/>
		<edge from-layer="1109" from-port="1" to-layer="1111" to-port="3"/>
		<edge from-layer="1110" from-port="1" to-layer="1111" to-port="4"/>
		<edge from-layer="1021" from-port="5" to-layer="1112" to-port="0"/>
		<edge from-layer="1113" from-port="1" to-layer="1118" to-port="0"/>
		<edge from-layer="1114" from-port="1" to-layer="1118" to-port="1"/>
		<edge from-layer="1115" from-port="1" to-layer="1118" to-port="2"/>
		<edge from-layer="1116" from-port="1" to-layer="1118" to-port="3"/>
		<edge from-layer="1117" from-port="1" to-layer="1118" to-port="4"/>
		<edge from-layer="1112" from-port="1" to-layer="1119" to-port="0"/>
		<edge from-layer="1118" from-port="5" to-layer="1119" to-port="1"/>
		<edge from-layer="1119" from-port="2" to-layer="1121" to-port="0"/>
		<edge from-layer="1120" from-port="1" to-layer="1121" to-port="1"/>
		<edge from-layer="1121" from-port="2" to-layer="1122" to-port="0"/>
		<edge from-layer="1122" from-port="1" to-layer="1127" to-port="0"/>
		<edge from-layer="1123" from-port="1" to-layer="1127" to-port="1"/>
		<edge from-layer="1124" from-port="1" to-layer="1127" to-port="2"/>
		<edge from-layer="1125" from-port="1" to-layer="1127" to-port="3"/>
		<edge from-layer="1126" from-port="1" to-layer="1127" to-port="4"/>
		<edge from-layer="1036" from-port="5" to-layer="1128" to-port="0"/>
		<edge from-layer="1066" from-port="5" to-layer="1128" to-port="1"/>
		<edge from-layer="1111" from-port="5" to-layer="1128" to-port="2"/>
		<edge from-layer="1127" from-port="5" to-layer="1128" to-port="3"/>
		<edge from-layer="1129" from-port="1" to-layer="1134" to-port="0"/>
		<edge from-layer="1130" from-port="1" to-layer="1134" to-port="1"/>
		<edge from-layer="1131" from-port="1" to-layer="1134" to-port="2"/>
		<edge from-layer="1132" from-port="1" to-layer="1134" to-port="3"/>
		<edge from-layer="1133" from-port="1" to-layer="1134" to-port="4"/>
		<edge from-layer="1128" from-port="4" to-layer="1135" to-port="0"/>
		<edge from-layer="1134" from-port="5" to-layer="1135" to-port="1"/>
		<edge from-layer="1135" from-port="2" to-layer="1137" to-port="0"/>
		<edge from-layer="1136" from-port="1" to-layer="1137" to-port="1"/>
		<edge from-layer="1137" from-port="2" to-layer="1142" to-port="0"/>
		<edge from-layer="1138" from-port="1" to-layer="1142" to-port="1"/>
		<edge from-layer="1139" from-port="1" to-layer="1142" to-port="2"/>
		<edge from-layer="1140" from-port="1" to-layer="1142" to-port="3"/>
		<edge from-layer="1141" from-port="1" to-layer="1142" to-port="4"/>
		<edge from-layer="1143" from-port="1" to-layer="1148" to-port="0"/>
		<edge from-layer="1144" from-port="1" to-layer="1148" to-port="1"/>
		<edge from-layer="1145" from-port="1" to-layer="1148" to-port="2"/>
		<edge from-layer="1146" from-port="1" to-layer="1148" to-port="3"/>
		<edge from-layer="1147" from-port="1" to-layer="1148" to-port="4"/>
		<edge from-layer="1021" from-port="5" to-layer="1149" to-port="0"/>
		<edge from-layer="1148" from-port="5" to-layer="1149" to-port="1"/>
		<edge from-layer="1149" from-port="2" to-layer="1151" to-port="0"/>
		<edge from-layer="1150" from-port="1" to-layer="1151" to-port="1"/>
		<edge from-layer="1151" from-port="2" to-layer="1156" to-port="0"/>
		<edge from-layer="1152" from-port="1" to-layer="1156" to-port="1"/>
		<edge from-layer="1153" from-port="1" to-layer="1156" to-port="2"/>
		<edge from-layer="1154" from-port="1" to-layer="1156" to-port="3"/>
		<edge from-layer="1155" from-port="1" to-layer="1156" to-port="4"/>
		<edge from-layer="1142" from-port="5" to-layer="1157" to-port="0"/>
		<edge from-layer="1156" from-port="5" to-layer="1157" to-port="1"/>
		<edge from-layer="1157" from-port="2" to-layer="1162" to-port="0"/>
		<edge from-layer="1158" from-port="1" to-layer="1162" to-port="1"/>
		<edge from-layer="1159" from-port="1" to-layer="1162" to-port="2"/>
		<edge from-layer="1160" from-port="1" to-layer="1162" to-port="3"/>
		<edge from-layer="1161" from-port="1" to-layer="1162" to-port="4"/>
		<edge from-layer="1163" from-port="1" to-layer="1168" to-port="0"/>
		<edge from-layer="1164" from-port="1" to-layer="1168" to-port="1"/>
		<edge from-layer="1165" from-port="1" to-layer="1168" to-port="2"/>
		<edge from-layer="1166" from-port="1" to-layer="1168" to-port="3"/>
		<edge from-layer="1167" from-port="1" to-layer="1168" to-port="4"/>
		<edge from-layer="1162" from-port="5" to-layer="1169" to-port="0"/>
		<edge from-layer="1168" from-port="5" to-layer="1169" to-port="1"/>
		<edge from-layer="1169" from-port="2" to-layer="1171" to-port="0"/>
		<edge from-layer="1170" from-port="1" to-layer="1171" to-port="1"/>
		<edge from-layer="1171" from-port="2" to-layer="1172" to-port="0"/>
		<edge from-layer="1172" from-port="1" to-layer="1177" to-port="0"/>
		<edge from-layer="1173" from-port="1" to-layer="1177" to-port="1"/>
		<edge from-layer="1174" from-port="1" to-layer="1177" to-port="2"/>
		<edge from-layer="1175" from-port="1" to-layer="1177" to-port="3"/>
		<edge from-layer="1176" from-port="1" to-layer="1177" to-port="4"/>
		<edge from-layer="1178" from-port="1" to-layer="1183" to-port="0"/>
		<edge from-layer="1179" from-port="1" to-layer="1183" to-port="1"/>
		<edge from-layer="1180" from-port="1" to-layer="1183" to-port="2"/>
		<edge from-layer="1181" from-port="1" to-layer="1183" to-port="3"/>
		<edge from-layer="1182" from-port="1" to-layer="1183" to-port="4"/>
		<edge from-layer="1162" from-port="5" to-layer="1184" to-port="0"/>
		<edge from-layer="1183" from-port="5" to-layer="1184" to-port="1"/>
		<edge from-layer="1184" from-port="2" to-layer="1186" to-port="0"/>
		<edge from-layer="1185" from-port="1" to-layer="1186" to-port="1"/>
		<edge from-layer="1186" from-port="2" to-layer="1187" to-port="0"/>
		<edge from-layer="1187" from-port="1" to-layer="1192" to-port="0"/>
		<edge from-layer="1188" from-port="1" to-layer="1192" to-port="1"/>
		<edge from-layer="1189" from-port="1" to-layer="1192" to-port="2"/>
		<edge from-layer="1190" from-port="1" to-layer="1192" to-port="3"/>
		<edge from-layer="1191" from-port="1" to-layer="1192" to-port="4"/>
		<edge from-layer="1193" from-port="1" to-layer="1198" to-port="0"/>
		<edge from-layer="1194" from-port="1" to-layer="1198" to-port="1"/>
		<edge from-layer="1195" from-port="1" to-layer="1198" to-port="2"/>
		<edge from-layer="1196" from-port="1" to-layer="1198" to-port="3"/>
		<edge from-layer="1197" from-port="1" to-layer="1198" to-port="4"/>
		<edge from-layer="1192" from-port="5" to-layer="1199" to-port="0"/>
		<edge from-layer="1198" from-port="5" to-layer="1199" to-port="1"/>
		<edge from-layer="1199" from-port="2" to-layer="1201" to-port="0"/>
		<edge from-layer="1200" from-port="1" to-layer="1201" to-port="1"/>
		<edge from-layer="1201" from-port="2" to-layer="1202" to-port="0"/>
		<edge from-layer="1202" from-port="1" to-layer="1207" to-port="0"/>
		<edge from-layer="1203" from-port="1" to-layer="1207" to-port="1"/>
		<edge from-layer="1204" from-port="1" to-layer="1207" to-port="2"/>
		<edge from-layer="1205" from-port="1" to-layer="1207" to-port="3"/>
		<edge from-layer="1206" from-port="1" to-layer="1207" to-port="4"/>
		<edge from-layer="1208" from-port="1" to-layer="1213" to-port="0"/>
		<edge from-layer="1209" from-port="1" to-layer="1213" to-port="1"/>
		<edge from-layer="1210" from-port="1" to-layer="1213" to-port="2"/>
		<edge from-layer="1211" from-port="1" to-layer="1213" to-port="3"/>
		<edge from-layer="1212" from-port="1" to-layer="1213" to-port="4"/>
		<edge from-layer="1162" from-port="5" to-layer="1214" to-port="0"/>
		<edge from-layer="1213" from-port="5" to-layer="1214" to-port="1"/>
		<edge from-layer="1214" from-port="2" to-layer="1216" to-port="0"/>
		<edge from-layer="1215" from-port="1" to-layer="1216" to-port="1"/>
		<edge from-layer="1216" from-port="2" to-layer="1217" to-port="0"/>
		<edge from-layer="1217" from-port="1" to-layer="1222" to-port="0"/>
		<edge from-layer="1218" from-port="1" to-layer="1222" to-port="1"/>
		<edge from-layer="1219" from-port="1" to-layer="1222" to-port="2"/>
		<edge from-layer="1220" from-port="1" to-layer="1222" to-port="3"/>
		<edge from-layer="1221" from-port="1" to-layer="1222" to-port="4"/>
		<edge from-layer="1223" from-port="1" to-layer="1228" to-port="0"/>
		<edge from-layer="1224" from-port="1" to-layer="1228" to-port="1"/>
		<edge from-layer="1225" from-port="1" to-layer="1228" to-port="2"/>
		<edge from-layer="1226" from-port="1" to-layer="1228" to-port="3"/>
		<edge from-layer="1227" from-port="1" to-layer="1228" to-port="4"/>
		<edge from-layer="1222" from-port="5" to-layer="1229" to-port="0"/>
		<edge from-layer="1228" from-port="5" to-layer="1229" to-port="1"/>
		<edge from-layer="1229" from-port="2" to-layer="1231" to-port="0"/>
		<edge from-layer="1230" from-port="1" to-layer="1231" to-port="1"/>
		<edge from-layer="1231" from-port="2" to-layer="1232" to-port="0"/>
		<edge from-layer="1232" from-port="1" to-layer="1237" to-port="0"/>
		<edge from-layer="1233" from-port="1" to-layer="1237" to-port="1"/>
		<edge from-layer="1234" from-port="1" to-layer="1237" to-port="2"/>
		<edge from-layer="1235" from-port="1" to-layer="1237" to-port="3"/>
		<edge from-layer="1236" from-port="1" to-layer="1237" to-port="4"/>
		<edge from-layer="1238" from-port="1" to-layer="1243" to-port="0"/>
		<edge from-layer="1239" from-port="1" to-layer="1243" to-port="1"/>
		<edge from-layer="1240" from-port="1" to-layer="1243" to-port="2"/>
		<edge from-layer="1241" from-port="1" to-layer="1243" to-port="3"/>
		<edge from-layer="1242" from-port="1" to-layer="1243" to-port="4"/>
		<edge from-layer="1237" from-port="5" to-layer="1244" to-port="0"/>
		<edge from-layer="1243" from-port="5" to-layer="1244" to-port="1"/>
		<edge from-layer="1244" from-port="2" to-layer="1246" to-port="0"/>
		<edge from-layer="1245" from-port="1" to-layer="1246" to-port="1"/>
		<edge from-layer="1246" from-port="2" to-layer="1247" to-port="0"/>
		<edge from-layer="1247" from-port="1" to-layer="1252" to-port="0"/>
		<edge from-layer="1248" from-port="1" to-layer="1252" to-port="1"/>
		<edge from-layer="1249" from-port="1" to-layer="1252" to-port="2"/>
		<edge from-layer="1250" from-port="1" to-layer="1252" to-port="3"/>
		<edge from-layer="1251" from-port="1" to-layer="1252" to-port="4"/>
		<edge from-layer="1177" from-port="5" to-layer="1253" to-port="0"/>
		<edge from-layer="1207" from-port="5" to-layer="1253" to-port="1"/>
		<edge from-layer="1252" from-port="5" to-layer="1253" to-port="2"/>
		<edge from-layer="1254" from-port="1" to-layer="1259" to-port="0"/>
		<edge from-layer="1255" from-port="1" to-layer="1259" to-port="1"/>
		<edge from-layer="1256" from-port="1" to-layer="1259" to-port="2"/>
		<edge from-layer="1257" from-port="1" to-layer="1259" to-port="3"/>
		<edge from-layer="1258" from-port="1" to-layer="1259" to-port="4"/>
		<edge from-layer="1253" from-port="3" to-layer="1260" to-port="0"/>
		<edge from-layer="1259" from-port="5" to-layer="1260" to-port="1"/>
		<edge from-layer="1260" from-port="2" to-layer="1262" to-port="0"/>
		<edge from-layer="1261" from-port="1" to-layer="1262" to-port="1"/>
		<edge from-layer="1262" from-port="2" to-layer="1267" to-port="0"/>
		<edge from-layer="1263" from-port="1" to-layer="1267" to-port="1"/>
		<edge from-layer="1264" from-port="1" to-layer="1267" to-port="2"/>
		<edge from-layer="1265" from-port="1" to-layer="1267" to-port="3"/>
		<edge from-layer="1266" from-port="1" to-layer="1267" to-port="4"/>
		<edge from-layer="1267" from-port="5" to-layer="1268" to-port="0"/>
		<edge from-layer="1162" from-port="5" to-layer="1268" to-port="1"/>
		<edge from-layer="1268" from-port="2" to-layer="1273" to-port="0"/>
		<edge from-layer="1269" from-port="1" to-layer="1273" to-port="1"/>
		<edge from-layer="1270" from-port="1" to-layer="1273" to-port="2"/>
		<edge from-layer="1271" from-port="1" to-layer="1273" to-port="3"/>
		<edge from-layer="1272" from-port="1" to-layer="1273" to-port="4"/>
		<edge from-layer="1274" from-port="1" to-layer="1279" to-port="0"/>
		<edge from-layer="1275" from-port="1" to-layer="1279" to-port="1"/>
		<edge from-layer="1276" from-port="1" to-layer="1279" to-port="2"/>
		<edge from-layer="1277" from-port="1" to-layer="1279" to-port="3"/>
		<edge from-layer="1278" from-port="1" to-layer="1279" to-port="4"/>
		<edge from-layer="1273" from-port="5" to-layer="1280" to-port="0"/>
		<edge from-layer="1279" from-port="5" to-layer="1280" to-port="1"/>
		<edge from-layer="1280" from-port="2" to-layer="1282" to-port="0"/>
		<edge from-layer="1281" from-port="1" to-layer="1282" to-port="1"/>
		<edge from-layer="1282" from-port="2" to-layer="1283" to-port="0"/>
		<edge from-layer="1283" from-port="1" to-layer="1288" to-port="0"/>
		<edge from-layer="1284" from-port="1" to-layer="1288" to-port="1"/>
		<edge from-layer="1285" from-port="1" to-layer="1288" to-port="2"/>
		<edge from-layer="1286" from-port="1" to-layer="1288" to-port="3"/>
		<edge from-layer="1287" from-port="1" to-layer="1288" to-port="4"/>
		<edge from-layer="1289" from-port="1" to-layer="1294" to-port="0"/>
		<edge from-layer="1290" from-port="1" to-layer="1294" to-port="1"/>
		<edge from-layer="1291" from-port="1" to-layer="1294" to-port="2"/>
		<edge from-layer="1292" from-port="1" to-layer="1294" to-port="3"/>
		<edge from-layer="1293" from-port="1" to-layer="1294" to-port="4"/>
		<edge from-layer="1273" from-port="5" to-layer="1295" to-port="0"/>
		<edge from-layer="1294" from-port="5" to-layer="1295" to-port="1"/>
		<edge from-layer="1295" from-port="2" to-layer="1297" to-port="0"/>
		<edge from-layer="1296" from-port="1" to-layer="1297" to-port="1"/>
		<edge from-layer="1297" from-port="2" to-layer="1298" to-port="0"/>
		<edge from-layer="1298" from-port="1" to-layer="1303" to-port="0"/>
		<edge from-layer="1299" from-port="1" to-layer="1303" to-port="1"/>
		<edge from-layer="1300" from-port="1" to-layer="1303" to-port="2"/>
		<edge from-layer="1301" from-port="1" to-layer="1303" to-port="3"/>
		<edge from-layer="1302" from-port="1" to-layer="1303" to-port="4"/>
		<edge from-layer="1304" from-port="1" to-layer="1309" to-port="0"/>
		<edge from-layer="1305" from-port="1" to-layer="1309" to-port="1"/>
		<edge from-layer="1306" from-port="1" to-layer="1309" to-port="2"/>
		<edge from-layer="1307" from-port="1" to-layer="1309" to-port="3"/>
		<edge from-layer="1308" from-port="1" to-layer="1309" to-port="4"/>
		<edge from-layer="1303" from-port="5" to-layer="1310" to-port="0"/>
		<edge from-layer="1309" from-port="5" to-layer="1310" to-port="1"/>
		<edge from-layer="1310" from-port="2" to-layer="1312" to-port="0"/>
		<edge from-layer="1311" from-port="1" to-layer="1312" to-port="1"/>
		<edge from-layer="1312" from-port="2" to-layer="1313" to-port="0"/>
		<edge from-layer="1313" from-port="1" to-layer="1318" to-port="0"/>
		<edge from-layer="1314" from-port="1" to-layer="1318" to-port="1"/>
		<edge from-layer="1315" from-port="1" to-layer="1318" to-port="2"/>
		<edge from-layer="1316" from-port="1" to-layer="1318" to-port="3"/>
		<edge from-layer="1317" from-port="1" to-layer="1318" to-port="4"/>
		<edge from-layer="1319" from-port="1" to-layer="1324" to-port="0"/>
		<edge from-layer="1320" from-port="1" to-layer="1324" to-port="1"/>
		<edge from-layer="1321" from-port="1" to-layer="1324" to-port="2"/>
		<edge from-layer="1322" from-port="1" to-layer="1324" to-port="3"/>
		<edge from-layer="1323" from-port="1" to-layer="1324" to-port="4"/>
		<edge from-layer="1273" from-port="5" to-layer="1325" to-port="0"/>
		<edge from-layer="1324" from-port="5" to-layer="1325" to-port="1"/>
		<edge from-layer="1325" from-port="2" to-layer="1327" to-port="0"/>
		<edge from-layer="1326" from-port="1" to-layer="1327" to-port="1"/>
		<edge from-layer="1327" from-port="2" to-layer="1328" to-port="0"/>
		<edge from-layer="1328" from-port="1" to-layer="1333" to-port="0"/>
		<edge from-layer="1329" from-port="1" to-layer="1333" to-port="1"/>
		<edge from-layer="1330" from-port="1" to-layer="1333" to-port="2"/>
		<edge from-layer="1331" from-port="1" to-layer="1333" to-port="3"/>
		<edge from-layer="1332" from-port="1" to-layer="1333" to-port="4"/>
		<edge from-layer="1334" from-port="1" to-layer="1339" to-port="0"/>
		<edge from-layer="1335" from-port="1" to-layer="1339" to-port="1"/>
		<edge from-layer="1336" from-port="1" to-layer="1339" to-port="2"/>
		<edge from-layer="1337" from-port="1" to-layer="1339" to-port="3"/>
		<edge from-layer="1338" from-port="1" to-layer="1339" to-port="4"/>
		<edge from-layer="1333" from-port="5" to-layer="1340" to-port="0"/>
		<edge from-layer="1339" from-port="5" to-layer="1340" to-port="1"/>
		<edge from-layer="1340" from-port="2" to-layer="1342" to-port="0"/>
		<edge from-layer="1341" from-port="1" to-layer="1342" to-port="1"/>
		<edge from-layer="1342" from-port="2" to-layer="1343" to-port="0"/>
		<edge from-layer="1343" from-port="1" to-layer="1348" to-port="0"/>
		<edge from-layer="1344" from-port="1" to-layer="1348" to-port="1"/>
		<edge from-layer="1345" from-port="1" to-layer="1348" to-port="2"/>
		<edge from-layer="1346" from-port="1" to-layer="1348" to-port="3"/>
		<edge from-layer="1347" from-port="1" to-layer="1348" to-port="4"/>
		<edge from-layer="1349" from-port="1" to-layer="1354" to-port="0"/>
		<edge from-layer="1350" from-port="1" to-layer="1354" to-port="1"/>
		<edge from-layer="1351" from-port="1" to-layer="1354" to-port="2"/>
		<edge from-layer="1352" from-port="1" to-layer="1354" to-port="3"/>
		<edge from-layer="1353" from-port="1" to-layer="1354" to-port="4"/>
		<edge from-layer="1348" from-port="5" to-layer="1355" to-port="0"/>
		<edge from-layer="1354" from-port="5" to-layer="1355" to-port="1"/>
		<edge from-layer="1355" from-port="2" to-layer="1357" to-port="0"/>
		<edge from-layer="1356" from-port="1" to-layer="1357" to-port="1"/>
		<edge from-layer="1357" from-port="2" to-layer="1358" to-port="0"/>
		<edge from-layer="1358" from-port="1" to-layer="1363" to-port="0"/>
		<edge from-layer="1359" from-port="1" to-layer="1363" to-port="1"/>
		<edge from-layer="1360" from-port="1" to-layer="1363" to-port="2"/>
		<edge from-layer="1361" from-port="1" to-layer="1363" to-port="3"/>
		<edge from-layer="1362" from-port="1" to-layer="1363" to-port="4"/>
		<edge from-layer="1288" from-port="5" to-layer="1364" to-port="0"/>
		<edge from-layer="1318" from-port="5" to-layer="1364" to-port="1"/>
		<edge from-layer="1363" from-port="5" to-layer="1364" to-port="2"/>
		<edge from-layer="1365" from-port="1" to-layer="1370" to-port="0"/>
		<edge from-layer="1366" from-port="1" to-layer="1370" to-port="1"/>
		<edge from-layer="1367" from-port="1" to-layer="1370" to-port="2"/>
		<edge from-layer="1368" from-port="1" to-layer="1370" to-port="3"/>
		<edge from-layer="1369" from-port="1" to-layer="1370" to-port="4"/>
		<edge from-layer="1364" from-port="3" to-layer="1371" to-port="0"/>
		<edge from-layer="1370" from-port="5" to-layer="1371" to-port="1"/>
		<edge from-layer="1371" from-port="2" to-layer="1373" to-port="0"/>
		<edge from-layer="1372" from-port="1" to-layer="1373" to-port="1"/>
		<edge from-layer="1373" from-port="2" to-layer="1378" to-port="0"/>
		<edge from-layer="1374" from-port="1" to-layer="1378" to-port="1"/>
		<edge from-layer="1375" from-port="1" to-layer="1378" to-port="2"/>
		<edge from-layer="1376" from-port="1" to-layer="1378" to-port="3"/>
		<edge from-layer="1377" from-port="1" to-layer="1378" to-port="4"/>
		<edge from-layer="1378" from-port="5" to-layer="1379" to-port="0"/>
		<edge from-layer="1273" from-port="5" to-layer="1379" to-port="1"/>
		<edge from-layer="1379" from-port="2" to-layer="1384" to-port="0"/>
		<edge from-layer="1380" from-port="1" to-layer="1384" to-port="1"/>
		<edge from-layer="1381" from-port="1" to-layer="1384" to-port="2"/>
		<edge from-layer="1382" from-port="1" to-layer="1384" to-port="3"/>
		<edge from-layer="1383" from-port="1" to-layer="1384" to-port="4"/>
		<edge from-layer="1385" from-port="1" to-layer="1390" to-port="0"/>
		<edge from-layer="1386" from-port="1" to-layer="1390" to-port="1"/>
		<edge from-layer="1387" from-port="1" to-layer="1390" to-port="2"/>
		<edge from-layer="1388" from-port="1" to-layer="1390" to-port="3"/>
		<edge from-layer="1389" from-port="1" to-layer="1390" to-port="4"/>
		<edge from-layer="1384" from-port="5" to-layer="1391" to-port="0"/>
		<edge from-layer="1390" from-port="5" to-layer="1391" to-port="1"/>
		<edge from-layer="1391" from-port="2" to-layer="1393" to-port="0"/>
		<edge from-layer="1392" from-port="1" to-layer="1393" to-port="1"/>
		<edge from-layer="1393" from-port="2" to-layer="1394" to-port="0"/>
		<edge from-layer="1394" from-port="1" to-layer="1399" to-port="0"/>
		<edge from-layer="1395" from-port="1" to-layer="1399" to-port="1"/>
		<edge from-layer="1396" from-port="1" to-layer="1399" to-port="2"/>
		<edge from-layer="1397" from-port="1" to-layer="1399" to-port="3"/>
		<edge from-layer="1398" from-port="1" to-layer="1399" to-port="4"/>
		<edge from-layer="1400" from-port="1" to-layer="1405" to-port="0"/>
		<edge from-layer="1401" from-port="1" to-layer="1405" to-port="1"/>
		<edge from-layer="1402" from-port="1" to-layer="1405" to-port="2"/>
		<edge from-layer="1403" from-port="1" to-layer="1405" to-port="3"/>
		<edge from-layer="1404" from-port="1" to-layer="1405" to-port="4"/>
		<edge from-layer="1384" from-port="5" to-layer="1406" to-port="0"/>
		<edge from-layer="1405" from-port="5" to-layer="1406" to-port="1"/>
		<edge from-layer="1406" from-port="2" to-layer="1408" to-port="0"/>
		<edge from-layer="1407" from-port="1" to-layer="1408" to-port="1"/>
		<edge from-layer="1408" from-port="2" to-layer="1409" to-port="0"/>
		<edge from-layer="1409" from-port="1" to-layer="1414" to-port="0"/>
		<edge from-layer="1410" from-port="1" to-layer="1414" to-port="1"/>
		<edge from-layer="1411" from-port="1" to-layer="1414" to-port="2"/>
		<edge from-layer="1412" from-port="1" to-layer="1414" to-port="3"/>
		<edge from-layer="1413" from-port="1" to-layer="1414" to-port="4"/>
		<edge from-layer="1415" from-port="1" to-layer="1420" to-port="0"/>
		<edge from-layer="1416" from-port="1" to-layer="1420" to-port="1"/>
		<edge from-layer="1417" from-port="1" to-layer="1420" to-port="2"/>
		<edge from-layer="1418" from-port="1" to-layer="1420" to-port="3"/>
		<edge from-layer="1419" from-port="1" to-layer="1420" to-port="4"/>
		<edge from-layer="1414" from-port="5" to-layer="1421" to-port="0"/>
		<edge from-layer="1420" from-port="5" to-layer="1421" to-port="1"/>
		<edge from-layer="1421" from-port="2" to-layer="1423" to-port="0"/>
		<edge from-layer="1422" from-port="1" to-layer="1423" to-port="1"/>
		<edge from-layer="1423" from-port="2" to-layer="1424" to-port="0"/>
		<edge from-layer="1424" from-port="1" to-layer="1429" to-port="0"/>
		<edge from-layer="1425" from-port="1" to-layer="1429" to-port="1"/>
		<edge from-layer="1426" from-port="1" to-layer="1429" to-port="2"/>
		<edge from-layer="1427" from-port="1" to-layer="1429" to-port="3"/>
		<edge from-layer="1428" from-port="1" to-layer="1429" to-port="4"/>
		<edge from-layer="1430" from-port="1" to-layer="1435" to-port="0"/>
		<edge from-layer="1431" from-port="1" to-layer="1435" to-port="1"/>
		<edge from-layer="1432" from-port="1" to-layer="1435" to-port="2"/>
		<edge from-layer="1433" from-port="1" to-layer="1435" to-port="3"/>
		<edge from-layer="1434" from-port="1" to-layer="1435" to-port="4"/>
		<edge from-layer="1384" from-port="5" to-layer="1436" to-port="0"/>
		<edge from-layer="1435" from-port="5" to-layer="1436" to-port="1"/>
		<edge from-layer="1436" from-port="2" to-layer="1438" to-port="0"/>
		<edge from-layer="1437" from-port="1" to-layer="1438" to-port="1"/>
		<edge from-layer="1438" from-port="2" to-layer="1439" to-port="0"/>
		<edge from-layer="1439" from-port="1" to-layer="1444" to-port="0"/>
		<edge from-layer="1440" from-port="1" to-layer="1444" to-port="1"/>
		<edge from-layer="1441" from-port="1" to-layer="1444" to-port="2"/>
		<edge from-layer="1442" from-port="1" to-layer="1444" to-port="3"/>
		<edge from-layer="1443" from-port="1" to-layer="1444" to-port="4"/>
		<edge from-layer="1445" from-port="1" to-layer="1450" to-port="0"/>
		<edge from-layer="1446" from-port="1" to-layer="1450" to-port="1"/>
		<edge from-layer="1447" from-port="1" to-layer="1450" to-port="2"/>
		<edge from-layer="1448" from-port="1" to-layer="1450" to-port="3"/>
		<edge from-layer="1449" from-port="1" to-layer="1450" to-port="4"/>
		<edge from-layer="1444" from-port="5" to-layer="1451" to-port="0"/>
		<edge from-layer="1450" from-port="5" to-layer="1451" to-port="1"/>
		<edge from-layer="1451" from-port="2" to-layer="1453" to-port="0"/>
		<edge from-layer="1452" from-port="1" to-layer="1453" to-port="1"/>
		<edge from-layer="1453" from-port="2" to-layer="1454" to-port="0"/>
		<edge from-layer="1454" from-port="1" to-layer="1459" to-port="0"/>
		<edge from-layer="1455" from-port="1" to-layer="1459" to-port="1"/>
		<edge from-layer="1456" from-port="1" to-layer="1459" to-port="2"/>
		<edge from-layer="1457" from-port="1" to-layer="1459" to-port="3"/>
		<edge from-layer="1458" from-port="1" to-layer="1459" to-port="4"/>
		<edge from-layer="1460" from-port="1" to-layer="1465" to-port="0"/>
		<edge from-layer="1461" from-port="1" to-layer="1465" to-port="1"/>
		<edge from-layer="1462" from-port="1" to-layer="1465" to-port="2"/>
		<edge from-layer="1463" from-port="1" to-layer="1465" to-port="3"/>
		<edge from-layer="1464" from-port="1" to-layer="1465" to-port="4"/>
		<edge from-layer="1459" from-port="5" to-layer="1466" to-port="0"/>
		<edge from-layer="1465" from-port="5" to-layer="1466" to-port="1"/>
		<edge from-layer="1466" from-port="2" to-layer="1468" to-port="0"/>
		<edge from-layer="1467" from-port="1" to-layer="1468" to-port="1"/>
		<edge from-layer="1468" from-port="2" to-layer="1469" to-port="0"/>
		<edge from-layer="1469" from-port="1" to-layer="1474" to-port="0"/>
		<edge from-layer="1470" from-port="1" to-layer="1474" to-port="1"/>
		<edge from-layer="1471" from-port="1" to-layer="1474" to-port="2"/>
		<edge from-layer="1472" from-port="1" to-layer="1474" to-port="3"/>
		<edge from-layer="1473" from-port="1" to-layer="1474" to-port="4"/>
		<edge from-layer="1399" from-port="5" to-layer="1475" to-port="0"/>
		<edge from-layer="1429" from-port="5" to-layer="1475" to-port="1"/>
		<edge from-layer="1474" from-port="5" to-layer="1475" to-port="2"/>
		<edge from-layer="1476" from-port="1" to-layer="1481" to-port="0"/>
		<edge from-layer="1477" from-port="1" to-layer="1481" to-port="1"/>
		<edge from-layer="1478" from-port="1" to-layer="1481" to-port="2"/>
		<edge from-layer="1479" from-port="1" to-layer="1481" to-port="3"/>
		<edge from-layer="1480" from-port="1" to-layer="1481" to-port="4"/>
		<edge from-layer="1475" from-port="3" to-layer="1482" to-port="0"/>
		<edge from-layer="1481" from-port="5" to-layer="1482" to-port="1"/>
		<edge from-layer="1482" from-port="2" to-layer="1484" to-port="0"/>
		<edge from-layer="1483" from-port="1" to-layer="1484" to-port="1"/>
		<edge from-layer="1484" from-port="2" to-layer="1489" to-port="0"/>
		<edge from-layer="1485" from-port="1" to-layer="1489" to-port="1"/>
		<edge from-layer="1486" from-port="1" to-layer="1489" to-port="2"/>
		<edge from-layer="1487" from-port="1" to-layer="1489" to-port="3"/>
		<edge from-layer="1488" from-port="1" to-layer="1489" to-port="4"/>
		<edge from-layer="1489" from-port="5" to-layer="1490" to-port="0"/>
		<edge from-layer="1384" from-port="5" to-layer="1490" to-port="1"/>
		<edge from-layer="1490" from-port="2" to-layer="1492" to-port="0"/>
		<edge from-layer="1491" from-port="1" to-layer="1492" to-port="1"/>
		<edge from-layer="1492" from-port="2" to-layer="1497" to-port="0"/>
		<edge from-layer="1493" from-port="1" to-layer="1497" to-port="1"/>
		<edge from-layer="1494" from-port="1" to-layer="1497" to-port="2"/>
		<edge from-layer="1495" from-port="1" to-layer="1497" to-port="3"/>
		<edge from-layer="1496" from-port="1" to-layer="1497" to-port="4"/>
		<edge from-layer="547" from-port="1" to-layer="1498" to-port="0"/>
		<edge from-layer="1021" from-port="5" to-layer="1498" to-port="1"/>
		<edge from-layer="1497" from-port="5" to-layer="1498" to-port="2"/>
		<edge from-layer="1499" from-port="1" to-layer="1504" to-port="0"/>
		<edge from-layer="1500" from-port="1" to-layer="1504" to-port="1"/>
		<edge from-layer="1501" from-port="1" to-layer="1504" to-port="2"/>
		<edge from-layer="1502" from-port="1" to-layer="1504" to-port="3"/>
		<edge from-layer="1503" from-port="1" to-layer="1504" to-port="4"/>
		<edge from-layer="1498" from-port="3" to-layer="1505" to-port="0"/>
		<edge from-layer="1504" from-port="5" to-layer="1505" to-port="1"/>
		<edge from-layer="1505" from-port="2" to-layer="1507" to-port="0"/>
		<edge from-layer="1506" from-port="1" to-layer="1507" to-port="1"/>
		<edge from-layer="1507" from-port="2" to-layer="1508" to-port="0"/>
		<edge from-layer="1508" from-port="1" to-layer="1513" to-port="0"/>
		<edge from-layer="1509" from-port="1" to-layer="1513" to-port="1"/>
		<edge from-layer="1510" from-port="1" to-layer="1513" to-port="2"/>
		<edge from-layer="1511" from-port="1" to-layer="1513" to-port="3"/>
		<edge from-layer="1512" from-port="1" to-layer="1513" to-port="4"/>
		<edge from-layer="1514" from-port="1" to-layer="1519" to-port="0"/>
		<edge from-layer="1515" from-port="1" to-layer="1519" to-port="1"/>
		<edge from-layer="1516" from-port="1" to-layer="1519" to-port="2"/>
		<edge from-layer="1517" from-port="1" to-layer="1519" to-port="3"/>
		<edge from-layer="1518" from-port="1" to-layer="1519" to-port="4"/>
		<edge from-layer="1498" from-port="3" to-layer="1520" to-port="0"/>
		<edge from-layer="1519" from-port="5" to-layer="1520" to-port="1"/>
		<edge from-layer="1520" from-port="2" to-layer="1522" to-port="0"/>
		<edge from-layer="1521" from-port="1" to-layer="1522" to-port="1"/>
		<edge from-layer="1522" from-port="2" to-layer="1523" to-port="0"/>
		<edge from-layer="1523" from-port="1" to-layer="1528" to-port="0"/>
		<edge from-layer="1524" from-port="1" to-layer="1528" to-port="1"/>
		<edge from-layer="1525" from-port="1" to-layer="1528" to-port="2"/>
		<edge from-layer="1526" from-port="1" to-layer="1528" to-port="3"/>
		<edge from-layer="1527" from-port="1" to-layer="1528" to-port="4"/>
		<edge from-layer="1513" from-port="5" to-layer="1529" to-port="0"/>
		<edge from-layer="1528" from-port="5" to-layer="1529" to-port="1"/>
		<edge from-layer="1530" from-port="1" to-layer="1535" to-port="0"/>
		<edge from-layer="1531" from-port="1" to-layer="1535" to-port="1"/>
		<edge from-layer="1532" from-port="1" to-layer="1535" to-port="2"/>
		<edge from-layer="1533" from-port="1" to-layer="1535" to-port="3"/>
		<edge from-layer="1534" from-port="1" to-layer="1535" to-port="4"/>
		<edge from-layer="1529" from-port="2" to-layer="1536" to-port="0"/>
		<edge from-layer="1535" from-port="5" to-layer="1536" to-port="1"/>
		<edge from-layer="1536" from-port="2" to-layer="1538" to-port="0"/>
		<edge from-layer="1537" from-port="1" to-layer="1538" to-port="1"/>
		<edge from-layer="1539" from-port="1" to-layer="1544" to-port="0"/>
		<edge from-layer="1540" from-port="1" to-layer="1544" to-port="1"/>
		<edge from-layer="1541" from-port="1" to-layer="1544" to-port="2"/>
		<edge from-layer="1542" from-port="1" to-layer="1544" to-port="3"/>
		<edge from-layer="1543" from-port="1" to-layer="1544" to-port="4"/>
		<edge from-layer="1513" from-port="5" to-layer="1545" to-port="0"/>
		<edge from-layer="1544" from-port="5" to-layer="1545" to-port="1"/>
		<edge from-layer="1545" from-port="2" to-layer="1547" to-port="0"/>
		<edge from-layer="1546" from-port="1" to-layer="1547" to-port="1"/>
		<edge from-layer="1547" from-port="2" to-layer="1548" to-port="0"/>
		<edge from-layer="1548" from-port="1" to-layer="1553" to-port="0"/>
		<edge from-layer="1549" from-port="1" to-layer="1553" to-port="1"/>
		<edge from-layer="1550" from-port="1" to-layer="1553" to-port="2"/>
		<edge from-layer="1551" from-port="1" to-layer="1553" to-port="3"/>
		<edge from-layer="1552" from-port="1" to-layer="1553" to-port="4"/>
		<edge from-layer="1554" from-port="1" to-layer="1559" to-port="0"/>
		<edge from-layer="1555" from-port="1" to-layer="1559" to-port="1"/>
		<edge from-layer="1556" from-port="1" to-layer="1559" to-port="2"/>
		<edge from-layer="1557" from-port="1" to-layer="1559" to-port="3"/>
		<edge from-layer="1558" from-port="1" to-layer="1559" to-port="4"/>
		<edge from-layer="1553" from-port="5" to-layer="1560" to-port="0"/>
		<edge from-layer="1559" from-port="5" to-layer="1560" to-port="1"/>
		<edge from-layer="1560" from-port="2" to-layer="1562" to-port="0"/>
		<edge from-layer="1561" from-port="1" to-layer="1562" to-port="1"/>
		<edge from-layer="1562" from-port="2" to-layer="1564" to-port="0"/>
		<edge from-layer="1563" from-port="1" to-layer="1564" to-port="1"/>
		<edge from-layer="1564" from-port="2" to-layer="1565" to-port="0"/>
		<edge from-layer="1565" from-port="1" to-layer="1567" to-port="0"/>
		<edge from-layer="1566" from-port="1" to-layer="1567" to-port="1"/>
		<edge from-layer="1568" from-port="1" to-layer="1573" to-port="0"/>
		<edge from-layer="1569" from-port="1" to-layer="1573" to-port="1"/>
		<edge from-layer="1570" from-port="1" to-layer="1573" to-port="2"/>
		<edge from-layer="1571" from-port="1" to-layer="1573" to-port="3"/>
		<edge from-layer="1572" from-port="1" to-layer="1573" to-port="4"/>
		<edge from-layer="1553" from-port="5" to-layer="1574" to-port="0"/>
		<edge from-layer="1573" from-port="5" to-layer="1574" to-port="1"/>
		<edge from-layer="1574" from-port="2" to-layer="1576" to-port="0"/>
		<edge from-layer="1575" from-port="1" to-layer="1576" to-port="1"/>
		<edge from-layer="1577" from-port="0" to-layer="1581" to-port="0"/>
		<edge from-layer="1578" from-port="1" to-layer="1581" to-port="1"/>
		<edge from-layer="1579" from-port="1" to-layer="1581" to-port="2"/>
		<edge from-layer="1580" from-port="1" to-layer="1581" to-port="3"/>
		<edge from-layer="1581" from-port="4" to-layer="1583" to-port="0"/>
		<edge from-layer="1582" from-port="1" to-layer="1583" to-port="1"/>
		<edge from-layer="1567" from-port="2" to-layer="1584" to-port="0"/>
		<edge from-layer="1576" from-port="2" to-layer="1584" to-port="1"/>
		<edge from-layer="1583" from-port="2" to-layer="1584" to-port="2"/>
		<edge from-layer="1538" from-port="2" to-layer="1585" to-port="0"/>
		<edge from-layer="1584" from-port="3" to-layer="1585" to-port="1"/>
		<edge from-layer="1585" from-port="2" to-layer="1590" to-port="0"/>
		<edge from-layer="1586" from-port="1" to-layer="1590" to-port="1"/>
		<edge from-layer="1587" from-port="1" to-layer="1590" to-port="2"/>
		<edge from-layer="1588" from-port="1" to-layer="1590" to-port="3"/>
		<edge from-layer="1589" from-port="1" to-layer="1590" to-port="4"/>
		<edge from-layer="1590" from-port="5" to-layer="1591" to-port="0"/>
		<edge from-layer="1591" from-port="1" to-layer="1593" to-port="0"/>
		<edge from-layer="1592" from-port="1" to-layer="1593" to-port="1"/>
		<edge from-layer="1594" from-port="1" to-layer="1599" to-port="0"/>
		<edge from-layer="1595" from-port="1" to-layer="1599" to-port="1"/>
		<edge from-layer="1596" from-port="1" to-layer="1599" to-port="2"/>
		<edge from-layer="1597" from-port="1" to-layer="1599" to-port="3"/>
		<edge from-layer="1598" from-port="1" to-layer="1599" to-port="4"/>
		<edge from-layer="1529" from-port="2" to-layer="1600" to-port="0"/>
		<edge from-layer="1599" from-port="5" to-layer="1600" to-port="1"/>
		<edge from-layer="1600" from-port="2" to-layer="1602" to-port="0"/>
		<edge from-layer="1601" from-port="1" to-layer="1602" to-port="1"/>
		<edge from-layer="1602" from-port="2" to-layer="1603" to-port="0"/>
		<edge from-layer="1584" from-port="3" to-layer="1603" to-port="1"/>
		<edge from-layer="1603" from-port="2" to-layer="1608" to-port="0"/>
		<edge from-layer="1604" from-port="1" to-layer="1608" to-port="1"/>
		<edge from-layer="1605" from-port="1" to-layer="1608" to-port="2"/>
		<edge from-layer="1606" from-port="1" to-layer="1608" to-port="3"/>
		<edge from-layer="1607" from-port="1" to-layer="1608" to-port="4"/>
		<edge from-layer="1608" from-port="5" to-layer="1609" to-port="0"/>
		<edge from-layer="1609" from-port="1" to-layer="1610" to-port="0"/>
		<edge from-layer="1610" from-port="1" to-layer="1612" to-port="0"/>
		<edge from-layer="1611" from-port="1" to-layer="1612" to-port="1"/>
		<edge from-layer="1584" from-port="3" to-layer="1614" to-port="0"/>
		<edge from-layer="1613" from-port="1" to-layer="1614" to-port="1"/>
		<edge from-layer="1593" from-port="2" to-layer="1615" to-port="0"/>
		<edge from-layer="1612" from-port="2" to-layer="1615" to-port="1"/>
		<edge from-layer="1614" from-port="2" to-layer="1615" to-port="2"/>
		<edge from-layer="1615" from-port="3" to-layer="1616" to-port="0"/>
	</edges>
	<meta_data>
		<MO_version value="unknown version"/>
		<cli_parameters>
			<blobs_as_inputs value="True"/>
			<caffe_parser_path value="DIR"/>
			<data_type value="FP32"/>
			<disable_nhwc_to_nchw value="False"/>
			<disable_omitting_optional value="False"/>
			<disable_resnet_optimization value="False"/>
			<enable_concat_optimization value="False"/>
			<enable_flattening_nested_params value="False"/>
			<enable_ssd_gluoncv value="False"/>
			<extensions value="DIR"/>
			<framework value="caffe"/>
			<freeze_placeholder_with_value value="{}"/>
			<generate_deprecated_IR_V2 value="False"/>
			<generate_deprecated_IR_V7 value="False"/>
			<generate_experimental_IR_V10 value="True"/>
			<input value="data,im_info"/>
			<input_model value="DIR/cnn.caffemodel"/>
			<input_model_is_text value="False"/>
			<input_proto value="DIR/cnn.prototxt"/>
			<input_shape value="[1,3,544,992],[1,6]"/>
			<k value="DIR/CustomLayersMapping.xml"/>
			<keep_quantize_ops_in_IR value="True"/>
			<keep_shape_ops value="False"/>
			<legacy_mxnet_model value="False"/>
			<log_level value="ERROR"/>
			<mean_scale_values value="{'data': {'mean': array([102.9801, 115.9465, 122.7717]), 'scale': None}}"/>
			<mean_values value="data[102.9801,115.9465,122.7717]"/>
			<model_name value="person-detection-retail-0002"/>
			<move_to_preprocess value="False"/>
			<output value="['detection_out']"/>
			<output_dir value="DIR"/>
			<placeholder_data_types value="{}"/>
			<placeholder_shapes value="{'data': array([  1,   3, 544, 992]), 'im_info': array([1, 6])}"/>
			<progress value="False"/>
			<remove_memory value="False"/>
			<remove_output_softmax value="False"/>
			<reverse_input_channels value="False"/>
			<save_params_from_nd value="False"/>
			<scale_values value="()"/>
			<silent value="False"/>
			<stream_output value="False"/>
			<unset unset_cli_parameters="batch, counts, disable_fusing, disable_gfusing, finegrain_fusing, input_checkpoint, input_meta_graph, input_symbol, mean_file, mean_file_offsets, nd_prefix_name, pretrained_model_name, saved_model_dir, saved_model_tags, scale, tensorboard_logdir, tensorflow_custom_layer_libraries, tensorflow_custom_operations_config_update, tensorflow_object_detection_api_pipeline_config, tensorflow_operation_patterns, tensorflow_subgraph_patterns, tensorflow_use_custom_operations_config, transformations_config"/>
		</cli_parameters>
	</meta_data>
</net>
